saves/best_avg_actor.pth (torch, 490895 bytes, 5 tensors)

l1.weight f4 [400, 3]
000000 c6 07 2f be 23 00 be be e1 b4 b7 be c4 f7 cb be
       -0.17092809 -0.3710948 -0.35880187 -0.39837468
000010 de a7 8e be 66 d3 1e 3e 0f 89 87 bd d6 39 90 3e
       -0.27862448 0.1551033 -0.06617939 0.28169125
000020 c3 90 87 bd a4 38 24 3f ee 5d 52 be 79 92 58 be
       -0.06619408 0.64148927 -0.20543644 -0.21149625
000030 e5 9a 15 bf 0a 8b 50 bf 36 e3 0f be 49 d3 a7 3e
       -0.58439475 -0.81462157 -0.14051518 0.32778385
000040 3a f4 65 3f 20 8b 92 3e 51 23 02 bf 68 09 e6 3e
       0.89825785 0.2862177 -0.5083514 0.4492905
000050 ab 6b c4 3e 62 47 1e 3f f8 b8 3c be 48 5b 35 3e
       0.38363394 0.6182767 -0.18429935 0.17710602
000060 88 e8 76 be e7 c6 28 3f 99 e3 af 3e bf f4 2c bf
       -0.24112141 0.659285 0.3435333 -0.6756095
000070 21 9f cf 3d b2 7b 63 3e cf 71 22 be 19 28 96 3e
       0.10137773 0.22215155 -0.15863727 0.29327467
000080 95 e0 b9 be 30 ad f2 bc ac 10 73 bf c3 2d 93 be
       -0.36304155 -0.029623598 -0.94947314 -0.2874585
000090 52 da 39 be 9d e8 b1 3f df 58 b5 3d 9a 0c 41 3f
       -0.18149689 1.3899113 0.088548414 0.75409853
0000a0 d5 d1 5f be db 97 78 be c1 e9 2b 3f b9 bd db be
       -0.21857388 -0.24276678 0.67153555 -0.42918184
0000b0 ba 41 a8 be f9 e1 9b be 17 77 9a 3f a3 2b 5e 3e
       -0.32862645 -0.3044584 1.2067593 0.21696334
0000c0 5c 14 8b be 7e 44 05 3f fe c0 a3 3e a7 b4 f5 3e
       -0.2716397 0.52057636 0.3198318 0.4798939
0000d0 30 0b f6 3e ac 8a 3b be 81 42 be 3e 6d 85 bb be
       0.4805541 -0.18314618 0.37160113 -0.36625233
0000e0 82 c8 8c 3e 9e 5a 0f bf 09 d5 35 bf 02 50 44 bd
       0.27496725 -0.55997646 -0.7102819 -0.047927864
0000f0 01 27 d6 3e ac 33 63 3d 37 a2 51 bd e4 9d 80 3e
       0.41826633 0.0554692 -0.05118009 0.2512046
000100 5b 9e 18 3f 39 f4 12 be d7 c2 a8 3e 86 f4 60 3f
       0.5961663 -0.14350976 0.3296115 0.87873113
000110 cf b3 8d 3e 9b d9 34 3f 20 e0 4a bf 68 2e 56 be
       0.27676246 0.7064454 -0.7924824 -0.2091614
000120 fc 2c e3 3e 5d 04 8e 3f 5d 3d 98 3e 42 48 d9 3e
       0.44370258 1.1095082 0.29734316 0.4243794
000130 af 1e 09 bf 0f 7a c8 be b8 4e c9 3e 13 fe 58 bf
       -0.53562444 -0.39155623 0.3931787 -0.84762686
000140 49 d4 a0 be b9 2d fb 3e 9c b0 e6 bc 80 18 fd be
       -0.3141196 0.4905832 -0.028160386 -0.49432755
000150 5f 13 c7 3c 95 8a 19 bf 37 53 6d bd 61 11 f7 be
       0.024301229 -0.59977084 -0.057940688 -0.48255447
000160 b4 df a8 bd fe 93 18 be 4c 2c ab 3d 6d fb 8c 3f
       -0.08245793 -0.14900205 0.08358058 1.1014229
000170 36 8a 2e 39 f2 69 a6 3d 25 fc a1 bf 9a 0e 33 be
       0.0001664542 0.08125676 -1.2655073 -0.17486039
000180 b5 c9 c8 3d 69 13 ce 3d 2e 2a c3 be 6c 8d b4 be
       0.098040976 0.10062296 -0.38118118 -0.35264146
000190 5d 6a a6 3f 7b 27 6c 3e 19 d0 96 be 61 45 46 bf
       1.300121 0.23061936 -0.2945564 -0.77449614
0001a0 d8 9d 7a be 57 00 3d 3f fb 4e 04 bf 66 6d a4 be
       -0.24474275 0.73828644 -0.51683015 -0.32114714
0001b0 a8 07 73 bd 93 95 aa be bf 38 22 be ec 90 a4 3e
       -0.059333473 -0.3331724 -0.1584196 0.32141817
0001c0 44 8f 83 be fa 87 8f 3e 7b 0d e9 3e 4b 38 19 bf
       -0.2569524 0.2803343 0.45518097 -0.5985152
0001d0 a4 ff a0 3e 01 56 e8 3e 63 9b 9e 3d f7 80 7e 3e
       0.31445038 0.45378116 0.077444814 0.24853884
0001e0 e6 66 14 3f 8d 47 45 be cc aa 83 be fd 55 c8 3e
       0.5796951 -0.19265576 -0.25716245 0.39128104
0001f0 46 f7 8f bf 1e 04 75 be 25 66 bd bd 5e 02 81 bf
       -1.1247337 -0.23927352 -0.09247998 -1.0078847
000200 43 6a ec bd 67 b2 0e bf 1a 61 bd bd 57 1d 39 3e
       -0.11543705 -0.5574097 -0.09247036 0.18077599
000210 7e af f9 be bc 03 12 3f ed 1b e1 3e d2 1a 73 bd
       -0.48766702 0.5703695 0.43966618 -0.05935175
000220 92 72 83 3c d1 02 4c bd 20 f6 0a 3f 21 80 63 3f
       0.016045842 -0.049807373 0.54281807 0.88867384
000230 bb 25 e8 3e 6f 5d 04 be f3 0f 98 3f f1 5f 81 be
       0.45341286 -0.12926267 1.1879867 -0.2526851
000240 93 6c 14 bf 6b 9a 2d bd 94 ac 9e 3e 55 ed b3 3e
       -0.5797817 -0.042383593 0.30991042 0.35142007
000250 e7 89 50 bf ff 9a 80 be bc ce 01 bf 43 b6 51 bf
       -0.8146042 -0.25118253 -0.50706077 -0.81918734
000260 13 fa 10 bc ce 13 27 3e 29 ea 88 3e 6d 5a 11 be
       -0.008848685 0.16316149 0.2674115 -0.14194651
000270 b2 67 c0 3e 30 23 01 bf f8 ba 9c 3e 0d a6 76 3d
       0.37579113 -0.50444317 0.30611396 0.060216952
000280 c9 ea 52 3e e7 05 3b be d6 07 09 bf aa b7 42 bf
       0.20597376 -0.1826397 -0.5352758 -0.760615
000290 ac 17 72 bc bd b1 3a 3e ea e6 87 be e3 2a 7e 3e
       -0.014776152 0.18231864 -0.2654336 0.24821047
0002a0 9d 70 2f bf 2a f2 25 3f fd 58 80 3e f8 cc 94 3d
       -0.6853121 0.6482264 0.25067893 0.07265657
0002b0 0e 46 3d 3f a7 e7 54 3d 6d 5b 5f bf 47 67 73 3e
       0.7393502 0.051978733 -0.8724888 0.23769866
0002c0 96 50 30 3d 9d 3d ab be 26 e3 a3 3d 3d 94 c2 be
       0.043045603 -0.33445445 0.080023095 -0.38003722
0002d0 48 db 06 3f c6 17 b2 3c 00 ee bf 3e 84 98 dc 3e
       0.52678347 0.021739852 0.37486267 0.4308511
0002e0 a8 cf 00 3f 20 9e 10 3e d7 ad 5a be 45 f9 78 bf
       0.5031686 0.1412282 -0.21355377 -0.97255355
0002f0 ff ca 16 be ff 0b 11 3f c1 a4 7b 3f a7 85 c2 3e
       -0.14725874 0.5665893 0.9829827 0.37992594
000300 7b 9f e7 be f5 43 12 bf b7 47 96 be ac e2 87 be
       -0.4523886 -0.57134944 -0.2935159 -0.26540124
000310 2c 98 9a bd f9 e9 12 3e e3 c7 f3 be 87 f3 e7 3e
       -0.07548556 0.14347066 -0.4761344 0.45302984
000320 e0 a9 33 3e 12 e5 6d 3e 71 c6 69 bf 16 06 07 be
       0.17545271 0.23231915 -0.9131842 -0.13185915
000330 94 f6 ce be c2 05 47 3f 64 b0 10 bd 0f 9a 0e 3f
       -0.404225 0.7774316 -0.03532447 0.55703825
000340 62 db ec 3d 9e 19 1e be 3b ac 4c 3e e6 32 a9 3e
       0.115652815 -0.1543946 0.19987576 0.33046645
000350 b4 35 08 3e 53 57 e8 be 89 28 ac be 8f ec 11 3d
       0.13301736 -0.45379123 -0.33624676 0.03562599
000360 94 89 2f bf 99 27 0d 3f f0 bf fa 3e d6 d4 1b bf
       -0.685693 0.55138546 0.48974562 -0.60871637
000370 e5 13 2b 3f cd 5a 06 3f c3 8c 6c 3e f0 42 31 bf
       0.6682723 0.524823 0.23100571 -0.69242764
000380 5b 99 bc be 12 d4 73 3e cd 48 89 bf a3 d9 43 bd
       -0.3683575 0.23811367 -1.0725342 -0.047814976
000390 27 3e c4 be d4 2c ad be b8 97 de 3c a9 fb 16 3f
       -0.38328668 -0.33823264 0.027171955 0.5897775
0003a0 e6 4b 27 3f 95 05 72 3e 5b c0 ae 3e 06 12 1e bf
       0.65350187 0.23634942 0.3413113 -0.6174625
0003b0 48 b9 b5 3d b7 bb f7 be 6f ef 58 3e b5 aa 16 3e
       0.0887323 -0.48385403 0.21185087 0.14713557
0003c0 52 a4 83 bc e9 97 15 3e 73 8c bc be d0 9e 5b 3d
       -0.016069565 0.1460873 -0.36825904 0.053618252
0003d0 ea ad 53 be 11 c4 43 be 4f 03 85 3e 34 6d 40 bf
       -0.20671812 -0.19117762 0.25979087 -0.7516663
0003e0 c4 70 45 3e 47 b8 5d bc 9e 84 f6 be 7c a8 89 3e
       0.19281298 -0.013532705 -0.48148054 0.26886356
0003f0 1f 7f f3 3e 8d 4a 13 bf 7a 8c a2 be 9d 01 19 bd
       0.47557923 -0.5753563 -0.317478 -0.037355054

l1.bias f4 [400]
000000 74 33 64 3e 2f 90 b2 3e 31 81 9a 3e 77 e7 23 bf
       0.22285253 0.34875628 0.3017669 -0.6402506
000010 07 50 bf be 56 ab b4 be d7 10 9c be 29 fb a0 3c
       -0.37365744 -0.3528697 -0.30481598 0.019651012
000020 90 4e 0e 3b 6b 79 d9 be ac a2 c8 be 95 5b ed be
       0.0021714307 -0.42475447 -0.3918661 -0.46358934
000030 c9 a7 39 3e 3c b8 38 bf a8 22 77 bf e6 3e 72 be
       0.18130411 -0.7215612 -0.96537256 -0.23656806
000040 64 71 89 3d 24 a8 ab 3e eb 75 09 bf b6 40 c3 3d
       0.06711081 0.3352672 -0.53695554 0.09533827
000050 f4 11 3e 3e 78 22 fa 3b cf e4 b3 be 76 be 32 bd
       0.18561536 0.0076335035 -0.35135505 -0.04363867
000060 76 86 92 be b1 07 95 bc 52 9b 24 bf e7 03 73 be
       -0.2861821 -0.018192144 -0.642995 -0.23731957
000070 a0 cb 1a 3e cd 53 34 bf 69 28 70 3e 73 07 b1 3e
       0.1511674 -0.7044037 0.23452915 0.34575996
000080 19 41 0f bf 52 07 3d be d1 c9 d7 3d b0 1c 41 bf
       -0.55958706 -0.18459824 0.1053654 -0.754344
000090 e4 cd 91 3d bb 7c 02 bf e5 2d 5e 3e 8e 93 2c bf
       0.07119349 -0.50971574 0.21697195 -0.6741265
0000a0 4a 6e 53 bf f0 8e 93 3d bd 0f 02 3e 02 c0 60 bf
       -0.8259016 0.072049975 0.12701316 -0.8779298
0000b0 a7 4b 88 be 40 3c 07 bf e6 5a 2f bf 4e 5b 0d 3e
       -0.26620218 -0.5282631 -0.68498075 0.13804361
0000c0 26 cb e7 3e 74 14 ae be 11 12 83 3e e3 fa 98 3e
       0.45272177 -0.3399998 0.2559972 0.2987891
0000d0 ad ec 23 3e d5 08 5a bf 41 56 7d 3e 57 6f 6d bd
       0.16008253 -0.85169727 0.24739935 -0.05796751
0000e0 d4 19 a7 3e 14 2f 2b bf cf 59 68 3e 60 ab d0 3e
       0.32636893 -0.6686871 0.2269051 0.4075575
0000f0 28 4a 66 bf d3 09 04 be 44 73 7b 3e b5 02 19 bf
       -0.89956903 -0.12894373 0.24555689 -0.59769756
000100 8f af 5e 3d 4f e1 75 3e 12 25 61 3e 98 a4 a5 3e
       0.054366644 0.2401173 0.21986797 0.32352138
000110 75 b4 d0 3e 78 5f 04 3f a9 72 7b be 28 a3 cb 3e
       0.40762678 0.51708174 -0.24555458 0.39772916
000120 5c c8 d8 be ab 97 9d be c8 c7 6c be f2 38 41 be
       -0.42340362 -0.30779776 -0.23123085 -0.18869379
000130 3b d1 ae 3e a5 df c8 bd 9b 9b 22 3e 28 06 b6 3e
       0.34144005 -0.09808282 0.15879671 0.35551572
000140 53 c6 fe be 4e 06 14 bf 54 d7 96 3d 49 40 a9 bc
       -0.49760684 -0.5782212 0.07365289 -0.020660536
000150 2a ff a7 bd 1d f3 c4 be 83 81 44 be 4e 7d 9d 3e
       -0.082029656 -0.3846673 -0.1919003 0.30759662
000160 85 49 ef be 76 4c c5 be ad b0 41 3e 8b a9 b4 bd
       -0.46735778 -0.38534898 0.18915053 -0.088214
000170 5a 72 6a be 58 fa 90 be 40 51 f8 be c3 ac 52 bf
       -0.22895184 -0.28315997 -0.4849949 -0.82294863
000180 4d 78 9a 3d 92 8d 84 be 0e 8a 75 3e 70 be cc be
       0.07542477 -0.2588926 0.23978445 -0.39989042
000190 4b 71 48 3d e3 a0 62 be f0 01 a8 3d 61 92 32 3e
       0.04893617 -0.22131686 0.082034945 0.17438652
0001a0 5b d5 7c 3d 6a 94 05 3e 73 3c 67 be 96 a6 2b bf
       0.06172691 0.13044897 -0.22581653 -0.67051065
0001b0 9b ab 18 bf 94 9a 88 be 01 f7 a9 3e 74 2c a4 be
       -0.5963685 -0.26680434 0.33196262 -0.32065165
0001c0 1c df 88 be cb e9 27 bf e0 1f 52 bd 3b 32 21 3e
       -0.2673272 -0.65591115 -0.05129993 0.15741818
0001d0 df 4b 3c bf 32 fc 33 bf 2a b0 9a 3e 43 bf e6 3d
       -0.7355327 -0.70306695 0.30212528 0.11266949
0001e0 5d 9f 4a be f3 72 69 be 35 91 86 be 2c 76 47 bf
       -0.19787355 -0.22797756 -0.2628266 -0.7791469
0001f0 f0 3a 23 bf a0 a5 48 3e e1 f6 cf be ab a8 24 be
       -0.63761806 0.19594431 -0.4061804 -0.16079967
000200 86 f8 87 be be 45 b0 be de 0d c5 be c8 b8 75 bf
       -0.26556796 -0.3442821 -0.38487142 -0.9598508
000210 e4 52 94 bd 06 0a c1 3e ef 75 9b be 41 55 20 be
       -0.07242373 0.3770296 -0.30363414 -0.15657522
000220 76 f8 49 3e a1 9e 9a be d6 51 1e 3e 26 d7 f0 3d
       0.19723687 -0.3019915 0.15460905 0.11759786
000230 2e 54 fd be 05 84 3c be f4 65 24 bd 9f b8 fc 3d
       -0.49478287 -0.18409736 -0.040136293 0.12339901
000240 94 8c a8 be 66 37 28 be c1 e8 b6 3d 6d 57 d3 be
       -0.32919753 -0.16427383 0.08931113 -0.41277638
000250 c2 a1 90 bd 4e 06 c2 3e 53 ee 06 bf 3a 48 2e 3e
       -0.07062103 0.37895435 -0.52707404 0.1701974
000260 a6 57 e1 3e 62 01 cb 3e 5d e5 ce bd db b3 8b 3e
       0.44012183 0.39649493 -0.10102341 0.27285656
000270 ce 87 81 be a0 76 9b 3e 31 61 b1 bd f5 42 88 be
       -0.25298923 0.3036394 -0.08661116 -0.26613584
000280 f2 f9 e4 3d 94 a4 ba 3e e0 ac 53 be 89 41 95 3e
       0.11180486 0.36453688 -0.20671415 0.29151562
000290 49 f9 3f be 9d b2 13 3e d2 44 8f 3e f9 0a ce be
       -0.18747438 0.14423604 0.27982193 -0.40242746
0002a0 31 6a 2c bf 18 66 2c 3e bb 46 c7 be fe 3b 45 3e
       -0.67349535 0.1683582 -0.3892115 0.19261166
0002b0 e0 d8 49 bf 1a aa 81 bd fa 3d 32 be bc bd 0d 3d
       -0.7884655 -0.063312724 -0.17406455 0.034604773
0002c0 04 cf 9e 3d d3 c3 ac bd dc 4e 3a bd 27 a0 14 3e
       0.07754329 -0.08435788 -0.045485362 0.14514218
0002d0 41 eb b6 3e d5 0a 88 bd 51 ba da 3c 8e ea d3 be
       0.3572636 -0.06642691 0.02670017 -0.4138989
0002e0 9c 67 17 3f d8 18 4d 3e e6 db 3d be 38 64 5b be
       0.5914247 0.20029008 -0.18540916 -0.21424949
0002f0 f7 22 f4 be 67 07 05 3e dc 65 b0 3e 74 30 9f 3e
       -0.47682926 0.12991105 0.34452713 0.31091654
000300 a0 9f c1 3d 5b 7e 0f bd a0 45 c9 3e 76 0f 0e be
       0.09454274 -0.03503261 0.39310932 -0.13873085
000310 bb 73 52 3e e6 84 9c be bd 4b 3a be ae ab 98 be
       0.2055196 -0.30570143 -0.18192954 -0.2981848
000320 57 61 dc bd 37 c6 35 bf 6c 81 5f bf 9d 73 3e be
       -0.107607536 -0.71005577 -0.8730686 -0.1859879
000330 de b1 a5 3d e3 db 38 bc d5 8a 61 3e e9 bf 8e be
       0.08090566 -0.011282894 0.22025616 -0.2788079
000340 c3 d5 b7 3d 67 ae b2 be 9e 69 f4 3d d2 f0 4a be
       0.08976319 -0.34898683 0.119342074 -0.19818428
000350 61 aa 89 3e 64 1c 55 3e 52 cb a1 3e 82 03 a0 be
       0.268878 0.20811611 0.31600434 -0.31252676
000360 7a 2b 8a 3e 14 e1 4c bf 10 49 a4 be 87 1b 6e bc
       0.26986295 -0.8003094 -0.32086992 -0.01453293
000370 e6 4e bd bc 7b 22 96 be 0b 1f b0 be 48 f2 72 bd
       -0.02310891 -0.29323182 -0.34398684 -0.05931309
000380 23 a4 bd be 3e 92 af 3d 0f 6b 68 bd ea f1 c1 3e
       -0.3703929 0.08572815 -0.056742724 0.37879878
000390 25 2b a6 bc db 15 30 bf 2c c0 3c bf 43 b9 22 be
       -0.020284245 -0.6878335 -0.7373073 -0.15890984
0003a0 be 53 58 3e d6 1c 0c bf b1 88 89 be b0 40 16 bf
       0.21125695 -0.547315 -0.268621 -0.58692455
0003b0 1b c4 ff bd 2a 55 27 bf 50 f8 1b bf 51 e7 99 3e
       -0.12488576 -0.65364325 -0.6092577 0.30059293
0003c0 1e 29 95 be c5 d9 a8 bd b6 70 f6 be 2d be 5b bf
       -0.29132932 -0.08244661 -0.48132867 -0.8583706
0003d0 71 82 7e be 78 41 4c bd e8 41 0e bf 2e f2 71 bd
       -0.24854447 -0.049867123 -0.55569315 -0.05906885
0003e0 a0 c4 4b be 26 7b 7b bf c1 1e b2 3e a8 47 e1 3e
       -0.19899225 -0.98234785 0.34789088 0.43999982
0003f0 8d 51 af 3e 2f c6 90 bd fc 89 33 3e fa 20 61 bf
       0.34241906 -0.070690505 0.17533106 -0.87940943

l2.weight f4 [300, 400]
000000 cf 1b 85 bd 7f 5a 6d bd db 72 24 bb f5 f4 84 be
       -0.06499445 -0.057947632 -0.0025092873 -0.25968137
000010 d3 be 70 bd 20 94 04 bd 6a 75 32 be b1 d9 56 bb
       -0.058775734 -0.032367826 -0.17427602 -0.0032783563
000020 47 7b a1 be 4c 0e 47 be 41 ff 82 bc 6a 8f a3 bd
       -0.31539366 -0.19439048 -0.015990855 -0.079863384
000030 3a f1 8b bd 3a 6d 61 be b1 eb 74 be 4e 21 d4 be
       -0.0683312 -0.22014323 -0.23918034 -0.4143166
000040 69 d9 4d be 64 7a 04 3d 6d ad 86 bd ef 6f 35 bd
       -0.20102467 0.032343283 -0.06576047 -0.0442962
000050 f9 58 48 3c 83 81 11 bd 0c 0d 59 bd 3f da e7 bc
       0.012228244 -0.035523903 -0.052990958 -0.02830231
000060 8f 66 47 3c 30 db b6 bc 02 88 49 be a7 c3 4e bb
       0.012170448 -0.022321314 -0.19680789 -0.0031549723
000070 b6 5f e0 bd f7 69 08 bd d4 89 39 bc c4 bd 54 be
       -0.109557554 -0.03330418 -0.011324365 -0.20775515
000080 a9 8c 24 bc 1d 94 ae be 5d bf 29 be 6b 05 62 be
       -0.010043302 -0.34097376 -0.16576906 -0.2207238
000090 5e 4e 57 bd 78 a9 9a bc 69 84 f5 bc 4b f1 12 bd
       -0.05256497 -0.018879637 -0.029970365 -0.035874646
0000a0 f4 f7 22 be 3f 6e 75 be 25 3c 8d be b1 6e ea bd
       -0.15914899 -0.23967837 -0.2758495 -0.11446894
0000b0 a3 4a 0a be 00 34 ed b9 3a 56 1b 3b 09 72 ae bc
       -0.13505034 -0.00045242906 0.0023702518 -0.02129461
0000c0 69 0a 26 be ff f8 98 be 2c c8 a5 bd 2f ae 01 bc
       -0.16214909 -0.2987747 -0.080948204 -0.007915064
0000d0 59 3c ed bd d1 06 05 be 0f cd 9d bd b6 bb 92 bc
       -0.11583776 -0.12990882 -0.077051274 -0.017911773
0000e0 4e 30 b8 be 45 f3 96 bd b6 a1 45 be 1b cf e7 bc
       -0.35974354 -0.07370619 -0.19299969 -0.028296998
0000f0 4d 50 09 be 8e 84 70 3c 13 5a 43 be ff 98 68 3d
       -0.13409539 0.014680041 -0.1907733 0.056786533
000100 7a 63 db bd b0 af cb bd fb 6d fe be ad 09 27 bc
       -0.10712333 -0.09945619 -0.49693283 -0.010195178
000110 29 19 5e bd 64 b0 88 3d 7b 17 90 bd 8c 53 ea bd
       -0.054223213 0.06674269 -0.070357285 -0.114417166
000120 8d 78 27 be 74 0a 1e be 29 8b 39 be 9b 79 58 be
       -0.1635458 -0.15433675 -0.18119492 -0.21140139
000130 ea 3a ae bd b2 3e 4b bd 86 87 5e bd 06 c3 ae be
       -0.08507331 -0.049620338 -0.054328464 -0.34133166
000140 1f 23 b9 bd a5 5f 80 bd 9c 32 82 bd c1 ff 2a be
       -0.09039902 -0.06268243 -0.06357309 -0.16699125
000150 77 ae 69 bd 5a 9c 13 be 6e db ec bd 19 9b c7 3c
       -0.05705115 -0.14415112 -0.115652904 0.024365949
000160 7a 7b 5f be 5c 4a 0e be 06 b9 d8 bd f8 a0 4d be
       -0.21824446 -0.13895553 -0.105821654 -0.20080936
000170 57 61 22 be 92 f2 c4 bd 62 35 18 bd e1 d4 db 3d
       -0.15857445 -0.09616579 -0.037160285 0.10733963
000180 8c eb c7 bd 8a e7 2d 3d 80 2e ce bd 81 03 e0 bd
       -0.09761724 0.04245714 -0.10067463 -0.10938168
000190 ea 0d 1b be 68 2b 61 be 67 02 a1 3c e9 5d 10 be
       -0.15142027 -0.21989214 0.019654466 -0.14098324
0001a0 fe 2f 51 bd e4 60 98 bd b8 d6 86 3e 9e 78 71 be
       -0.05107116 -0.074403554 0.26335692 -0.23581168
0001b0 2e cf 3e 3d e7 b3 c4 bd 94 09 81 bd e3 d1 44 bd
       0.0465843 -0.09604626 -0.06300655 -0.048051726
0001c0 ce 40 32 bc 13 27 5d be b5 73 ad bb 08 bb a0 3d
       -0.010879708 -0.21596937 -0.0052933344 0.078481734
0001d0 5a 6e 99 bd 80 c7 08 3e de 1a 9c 3d 74 8e 9a bd
       -0.07491751 0.13357353 0.07622312 -0.07546702
0001e0 d0 73 c1 bd c1 ee a6 bc 20 d7 6a be fc d1 14 bd
       -0.094459176 -0.020377519 -0.22933626 -0.03633307
0001f0 c3 74 1c be a0 31 24 bd 0e 8c e9 3c 6b cc c4 be
       -0.15278916 -0.04008639 0.028509166 -0.3843721
000200 ba 2e 8d 3d 68 b8 10 bc 44 ae 89 be ba 80 36 38
       0.06893678 -0.008833028 -0.26890767 4.3512067e-05
000210 65 f0 9d 3c 37 30 96 3d f2 d8 ff bd d3 de d2 be
       0.019279668 0.07333415 -0.12492551 -0.41185626
000220 dd 30 a5 bc 2c 0e 30 3d a6 5f b5 bc f2 69 86 bd
       -0.020164901 0.042982265 -0.022140335 -0.06563176
000230 ea 38 87 be 4a 2a 48 bd 4f 72 92 bd b8 1c 2b bd
       -0.2641061 -0.048868455 -0.07150709 -0.041775435
000240 59 94 05 be e6 ab 12 be ec ae 43 be 21 31 22 be
       -0.13044871 -0.14323387 -0.19109696 -0.15839054
000250 34 2c 38 be ad d2 d6 bd 1d fd ff bb 19 db 35 3b
       -0.17985612 -0.10489402 -0.007812156 0.0027749
000260 5f 17 65 bb 2c 71 88 be 96 48 e3 bd a7 b9 9d bc
       -0.0034956557 -0.26648843 -0.11097829 -0.019253565
000270 5c 9f 1d be f6 b0 d4 bb 5d 2a 8c be d4 dc e7 bc
       -0.15392822 -0.006490822 -0.2737607 -0.028303541
000280 75 31 22 be e9 13 39 bd cf 07 f8 3c fb f3 0f be
       -0.15839179 -0.045185003 0.03027716 -0.14057915
000290 af 12 41 3b 4a 8c 77 be ef 22 a3 bc 94 7c a3 3d
       0.00294606 -0.2417461 -0.019914119 0.07982746
0002a0 e1 b1 4b 3e 03 57 a2 bb 81 ee 60 bd d6 ab a6 bd
       0.19892074 -0.0049542203 -0.054914955 -0.08138244
0002b0 4e ec 37 bd 38 21 1c bc be 38 7d be 8e dc e7 38
       -0.044903092 -0.009529404 -0.24728677 0.0001105602
0002c0 1d 27 05 be 4a e6 3d be d5 79 46 bd 44 c6 d5 bd
       -0.13003202 -0.1854488 -0.04845603 -0.10438207
0002d0 14 ab f2 bd e5 35 da be c8 24 f8 bd a5 97 98 be
       -0.11849037 -0.42619243 -0.121163905 -0.29803196
0002e0 17 31 2c 3d b9 26 0a be df 1d dd bd 91 cf 62 be
       0.042039003 -0.13491334 -0.10796713 -0.22149493
0002f0 fd 4f bb bc 5b c7 7c 3c 64 05 93 ba 1f 11 73 bd
       -0.02286529 0.015428389 -0.0011216816 -0.0593425
000300 90 5a 9f bd 7e ec ea bc 93 96 1f be 01 c7 ec be
       -0.07780945 -0.028677221 -0.15584783 -0.46245578
000310 46 1f 31 3d e7 48 af bd 64 3e a6 bd 1a 4b 87 3c
       0.043242715 -0.08558827 -0.08117369 0.016515303
000320 7d 67 ec bd ae b9 46 be 8c 39 97 be fe ec e9 bd
       -0.11543176 -0.19406769 -0.29536092 -0.11422156
000330 7d 82 b6 bc 3d f8 cc 3d 1d 3b 0c ba 0c 2f ce bd
       -0.022279019 0.10008285 -0.0005349385 -0.10067567
000340 89 a8 e4 bd f1 ee 65 be a9 00 56 3c 69 1e 89 bd
       -0.11164958 -0.2245443 0.013061681 -0.066952534
000350 ab 6c 5d be a4 26 c6 3a 24 2d 79 bd 44 e2 04 3d
       -0.21623485 0.0015117717 -0.060834065 0.032442346
000360 f5 05 b9 be 2e 21 c8 bd e1 03 a4 bd 15 77 2e bd
       -0.36137357 -0.097719535 -0.08008552 -0.042594034
000370 1a 9a a1 be b6 45 24 be 7d 43 11 3d b7 bd 55 be
       -0.31562883 -0.16042218 0.035464752 -0.20873152
000380 94 7f f3 be df 16 4c 3d 1c 16 2f bd b0 9b 08 be
       -0.47558272 0.0498265 -0.042745695 -0.1334064
000390 a2 d7 09 bd a8 bf 95 bb ea fe 75 3d 21 d5 10 be
       -0.03365291 -0.0045699663 0.060057558 -0.14143802
0003a0 e0 d7 80 bd 91 5d 81 3d 61 e7 e2 bd ef ed 88 be
       -0.06291175 0.063166745 -0.11079288 -0.2674403
0003b0 ce 0b 5d bd e8 56 e7 bd 7a 8a a9 3e 17 82 b7 3c
       -0.053966336 -0.11295873 0.33113462 0.022400899
0003c0 e4 df 82 be 76 11 2a be 88 4d 61 bc b2 27 4d bd
       -0.2556144 -0.16608223 -0.013751395 -0.050086685
0003d0 17 af cc bd 8f 11 d2 bd 12 17 88 be 86 f8 7d 3d
       -0.09994333 -0.10257255 -0.265801 0.06200459
0003e0 68 7d 9e 3d 58 4f 00 be d3 1e bb be c4 9a 04 3d
       0.07738763 -0.12530267 -0.36546955 0.03237416
0003f0 66 9c 9f bd 61 66 01 bf 8c 23 76 be c4 a0 c4 bc
       -0.077935025 -0.5054684 -0.24036998 -0.02400244

l2.bias f4 [300]
000000 0b c7 00 bd 85 bb f2 bb e1 71 1f 3c 87 5d 3b bd
       -0.031439822 -0.007407608 0.009731741 -0.04574349
000010 7d 7b 64 bd cf 0c 02 bc cb f8 07 3d ac dc 48 bd
       -0.05578183 -0.007937624 0.03319625 -0.049038574
000020 fe 4c 68 bc 1b cb 07 3b e6 6c 45 bd 06 7e 34 bb
       -0.014178513 0.0020720426 -0.048199557 -0.0027540936
000030 00 1e 19 3d 55 30 83 3c 6c 8a 1d bc 1a a6 88 bb
       0.037382126 0.016014257 -0.009615522 -0.0041701915
000040 cd 80 1c bd e3 da 7b 3c 9e 1b 10 3d 34 31 a8 3d
       -0.03820877 0.015372011 0.035182588 0.0821251
000050 b3 0a e9 bc e5 a3 b3 3c 5d 58 0b 3d 9f 14 5d bd
       -0.028447485 0.021928737 0.034019817 -0.053974744
000060 4a c6 85 bd 8f c7 2a 3d a3 28 ff bd 6f 94 4c bd
       -0.06531961 0.04169422 -0.12458923 -0.049946245
000070 c2 e5 4c 3d a3 78 b7 3c f4 63 90 3c a3 8a 22 bc
       0.0500238 0.022396391 0.017625786 -0.009920749
000080 3f d2 23 3d 70 5c 7b bd b6 ac 03 bd 77 1e 47 bd
       0.03999543 -0.061367452 -0.03214713 -0.048613038
000090 7c 24 ce 3c 56 a3 69 bd bc dc cc bc d2 9b 29 3d
       0.025163881 -0.057040535 -0.025007598 0.041408367
0000a0 24 e5 89 bd fe 07 a8 bc 7e 3f b5 bc a8 56 d0 bc
       -0.06733158 -0.020511623 -0.022125002 -0.025431946
0000b0 0e 87 91 bd aa c3 2c bd 41 d8 04 bd 5f c9 0e be
       -0.07105838 -0.042178787 -0.0324328 -0.13944004
0000c0 6b 7b 32 bc d5 d6 9e 3c 0c 48 22 3c 10 9e 5b bd
       -0.010893683 0.01938955 0.009904873 -0.053617537
0000d0 29 7c 67 bd bf 2a 2e bd 29 de 44 bd 7f 5a 29 3d
       -0.056514893 -0.042521235 -0.04806343 0.04134607
0000e0 1d a0 09 3d 9b 59 5f bd 9a 00 48 3c cb 29 5a 3c
       0.03359996 -0.054528814 0.012207175 0.013315628
0000f0 50 af 6f bd 6f 7e 19 bd 7d 28 19 3d 9a 9f 3a bd
       -0.0585168 -0.037474092 0.03739213 -0.045562364
000100 16 66 6d bc 36 e4 99 bd 66 1d d4 bd cc b4 1c bd
       -0.014489671 -0.07514231 -0.1035717 -0.03825836
000110 7e 4b ed 3a 58 ac 16 bd e7 1e b2 3d c1 06 6b bc
       0.0018104163 -0.036785454 0.086973004 -0.014344872
000120 d7 5b 88 bc 1e a7 e2 bc 07 32 ee 3c 7e fe a9 3b
       -0.016645355 -0.027667578 0.02907659 0.0051878085
000130 36 4c a5 3c 71 a4 8c be 28 22 28 be 33 97 89 3c
       0.020177942 -0.2746921 -0.1641928 0.01679573
000140 31 82 a0 bc 40 58 f1 3c a7 33 d1 3b 37 e0 da 3c
       -0.01959333 0.029461026 0.0063843313 0.026718242
000150 41 f2 1c bd 2d d5 a4 3c 16 35 38 3c e3 62 ac 3c
       -0.03831697 0.020121181 0.011243125 0.021043247
000160 7a 63 08 bd e7 e9 0d 3d 7f 99 0f bd 53 11 32 bd
       -0.033297993 0.034646895 -0.035058495 -0.043473553
000170 ce c6 8f 3c ae ac 03 bd ef cb 4c bd f3 ca 8e bd
       0.017550852 -0.032147102 -0.049999174 -0.06972303
000180 84 a9 a4 bb ff 09 8a bd fa 8f 0c bd 10 46 1f 3d
       -0.0050250906 -0.06740188 -0.034316994 0.038885176
000190 0c 57 9c bd b8 35 74 bc 5b 28 85 bc ce 51 ad bc
       -0.076337904 -0.014905386 -0.016254595 -0.021157172
0001a0 a3 dc 3b bd 78 b5 7b bd a5 7b 06 bd 80 96 4f bd
       -0.045864712 -0.06145236 -0.03283276 -0.050680637
0001b0 bc f1 19 3d 28 8a 8e 3c 8e 9c c5 3b 06 20 22 bd
       0.03758405 0.017399862 0.0060306257 -0.03958132
0001c0 cd 48 de bc b1 60 19 3d 24 f7 82 3d 31 49 a7 bd
       -0.027134323 0.037445728 0.063947946 -0.08168257
0001d0 aa 78 8e ba ef ed 22 3d f6 07 2d 3c 53 c5 2f 3d
       -0.0010869701 0.039777692 0.01056098 0.042912792
0001e0 be c6 ea 3c 0a 57 e8 3c 00 eb 91 bd a3 61 d7 bc
       0.02865922 0.028361816 -0.07124901 -0.026291674
0001f0 58 2f 6e bd e6 a2 78 bd 33 e5 c3 bd 02 42 0d bc
       -0.05815062 -0.060702227 -0.09565201 -0.0086216945
000200 78 12 8b 3c 9e 3e 36 bd 6e 51 8a 3a 32 89 0e be
       0.01697658 -0.04449331 0.0010552832 -0.13919523
000210 5c f6 ca 3c 9a 49 45 3c ee da 35 bd be d8 c2 3c
       0.024775676 0.012041474 -0.04439824 0.023784991
000220 06 aa 13 bd 4f 84 1f bd 9d 7b f5 bc 89 da 55 bd
       -0.03605082 -0.03894454 -0.02996617 -0.052210364
000230 b3 10 9c 3b 37 83 8f bc 7b 11 94 3b e9 c2 65 3d
       0.004762733 -0.017518623 0.0045186854 0.056094084
000240 1a 97 a2 3b 67 88 8e 3b cc f9 a9 bd 4f ba 3b bd
       0.0049618604 0.0043497565 -0.08299598 -0.045831975
000250 aa b6 89 3b 89 d9 b9 3c 89 ea 22 bd f9 34 1e bd
       0.0042026835 0.022686737 -0.03977445 -0.038624737
000260 f2 29 ec bc 39 95 eb bc fb 77 46 bc 0f 68 80 bd
       -0.028828595 -0.028757678 -0.0121135665 -0.062698476
000270 99 f5 32 3c b9 c9 06 3c a2 3d 06 bc b1 41 ec 3b
       0.010922813 0.008226805 -0.008193405 0.0072099795
000280 9e 93 83 3b 54 0e ac 3b 95 f4 88 be a7 6b 10 bd
       0.0040154 0.0052507315 -0.267491 -0.035258915
000290 8b b5 48 bc e0 0d ca ba 94 4f 69 3a ea 9e 96 3c
       -0.0122503145 -0.0015415512 0.00089001027 0.018386323
0002a0 fe cf 49 bd 4b 73 31 bd 36 86 2f bd 35 72 b5 bb
       -0.049270622 -0.043322843 -0.042852603 -0.005537296
0002b0 a8 27 11 3c f7 4f 1b 3d 67 5c 05 3d dd cb df bb
       0.008859552 0.037918057 0.032558825 -0.0068297223
0002c0 fe 63 05 3d 0a 6a 7d 3d 63 7c 1b 3c 6a a0 a9 bd
       0.032566063 0.061868705 0.009490105 -0.0828255
0002d0 7a be 09 bc 62 ea 3f bd b3 95 5f bd 12 e4 66 bd
       -0.00840723 -0.046854384 -0.054586124 -0.05636985
0002e0 29 85 8c bd 7b f9 2a 3c d7 ce 53 bd e8 55 8f bc
       -0.06861336 0.010435457 -0.05171093 -0.017497018
0002f0 e3 f4 71 bd a4 69 e4 3a 42 cb 42 bd 32 b8 31 bd
       -0.059071433 0.0017426503 -0.047557123 -0.043388553
000300 fb 53 06 bd 48 30 1a bd ad 40 82 bd 0c e7 07 3d
       -0.032794934 -0.0376437 -0.06359992 0.033179328
000310 de bb 54 bc 1c 59 fc bb 53 63 ec bb 4c 1d db 3a
       -0.012984244 -0.0077010524 -0.007213989 0.0016717105
000320 bc c7 92 3c c7 e6 99 bd 94 d1 6e bd 7b 4b dc 3d
       0.017917506 -0.075147204 -0.058305338 0.10756584
000330 2f 31 25 bd 4d 16 85 bc 81 35 2d bd 88 6c 21 3c
       -0.04033011 -0.016245985 -0.042287353 0.009852536
000340 7f 36 e9 3c 98 a3 41 bc d2 6c 3a bd 11 26 dc bd
       0.028468369 -0.011818789 -0.045513935 -0.10749448
000350 a1 19 99 bd 03 d0 8d bc c0 11 8b 3d 99 65 32 3d
       -0.074755915 -0.017311102 0.06790495 0.043553922
000360 25 70 a6 bc 38 c1 bd bd 25 2e 97 bb d5 91 4e bd
       -0.020317147 -0.09265369 -0.004613655 -0.050432045
000370 b8 6e 35 bb b0 ca 47 bd a8 ae 4e 3d c6 39 fe 3c
       -0.0027684402 -0.048777282 0.050459534 0.031033408
000380 29 df 1b 3b f9 5d 52 3b 38 dc 22 bd 00 0f 53 bc
       0.0023784137 0.003209947 -0.0397608 -0.012881994
000390 71 8b 7c bd ef 90 34 bd f2 ec 7d bc f9 6a bb 3c
       -0.06165642 -0.044083532 -0.015498387 0.022878157
0003a0 91 73 94 3c c4 58 19 bd 44 b2 2b 3c 55 0a 79 bc
       0.018121513 -0.03743817 0.010479514 -0.015200217
0003b0 f0 58 12 bc b3 6b 23 bd 5a 48 55 3d 6f 7c 3e bd
       -0.008932337 -0.03989763 0.052070953 -0.046505388
0003c0 e7 4d 96 bc dd 7e 2c 3c 26 f5 04 3d 8f 95 42 bd
       -0.018347694 0.010528293 0.032460354 -0.04750591
0003d0 34 5e 72 bd f5 0a 8e 3d ed 96 99 bc aa a6 32 bd
       -0.05917187 0.06935684 -0.018748725 -0.043615974
0003e0 b8 e2 9b bc 66 99 bf 3c 42 64 5b bd 23 db 23 3c
       -0.019029006 0.023388576 -0.05356241 0.010000977
0003f0 21 20 97 bb 3a ee 17 bd 13 10 f6 3c ff 01 74 bd
       -0.0046119844 -0.037092425 0.030036962 -0.059572216

l3.weight f4 [1, 300]
000000 00 c0 d3 bd 14 80 3f bd 9b fc 05 3d 68 9b 50 3d
       -0.103393555 -0.046753004 0.032711606 0.050929457
000010 78 24 10 bd 5a ba fe 3b fa 3b ea 3b ce 33 49 bb
       -0.03519103 0.0077736797 0.007148263 -0.0030701044
000020 fe 10 99 38 f1 64 ee 3b be d3 b4 bb b1 da 52 bd
       7.2987736e-05 0.0072752167 -0.0055184057 -0.05147809
000030 51 2e 56 bc 23 36 21 3c 3f e4 b2 bc ec 2e db bc
       -0.013072566 0.009839567 -0.021837352 -0.026755773
000040 a0 1b 12 bd ff 79 b1 bb 0b f0 fe 3c 0a be 1e bf
       -0.035670877 -0.0054161544 0.03112032 -0.62008727
000050 7a 7c 44 bb 6d f9 27 3d d0 53 7d bc 7f c8 15 be
       -0.002998142 0.041009355 -0.015461877 -0.14627264
000060 be 8b 81 3c 78 81 0a 3d 67 78 b2 3d 3e 3e d3 3c
       0.015813705 0.033814877 0.08714371 0.025786515
000070 68 32 24 bf c4 78 02 bc 79 d3 18 be 13 8b 73 3e
       -0.64139414 -0.007963363 -0.1492442 0.23783521
000080 ff 7d b7 bc 54 ff b6 3c 76 ba 9a 3c 11 b3 24 bd
       -0.022398947 0.022338547 0.01888774 -0.040209834
000090 a1 c7 1a 3f d1 fb 4b 3c 41 c5 1c bb d9 68 03 3c
       0.6046086 0.012450174 -0.0023921283 0.008020603
0000a0 5a 7a 8b 3c 1b 2b 6d bc 0f 22 c0 bc 49 fb 20 bd
       0.017026115 -0.014475609 -0.02345374 -0.039302144
0000b0 76 f9 ca bc 80 9b 2c 3d 7a c9 48 3a d7 08 22 be
       -0.024777155 0.042140484 0.0007659417 -0.15823685
0000c0 c2 11 30 bf 1c 7d d7 bc cc db 2b bd 7b 26 2a 3c
       -0.68777096 -0.026304774 -0.04195766 0.010385151
0000d0 1d 54 13 bd bb 79 56 3c ce 94 01 bd cd 20 5d bb
       -0.03596889 0.013090546 -0.03163605 -0.0033741475
0000e0 b6 85 31 3d 33 b1 50 bd 5f 1f d0 bc a9 75 6e 3b
       0.043340407 -0.05095024 -0.025405584 0.003638605
0000f0 4a 11 a9 bc 51 b6 00 bd 77 37 bc 3c b4 64 1b bd
       -0.020638127 -0.03142387 0.022975666 -0.037937835
000100 b5 6a d2 3e ad 19 a6 bd f1 bf 8a 3c 59 54 6b 3c
       0.41097036 -0.08110366 0.016937228 0.014363372
000110 b1 9b a3 3c 55 3e 09 bc 54 29 19 bf 6e 18 1d bc
       0.0199717 -0.0083766775 -0.59828687 -0.009588344
000120 f9 b7 06 bd a9 43 a8 bb ac 4e 9d be fa af bf 3c
       -0.032890294 -0.005135019 -0.30724084 0.023399342
000130 fe a1 35 3d 73 4a d7 3d b0 b8 00 be 52 0e 03 3b
       0.04434394 0.10512247 -0.12570453 0.001999755
000140 00 21 8e ba 89 b1 3f 3e a0 ff 86 38 bd c6 0f 3d
       -0.0010843575 0.18720068 6.437232e-05 0.03510164
000150 0f 61 80 3c 87 6e d6 bc 86 39 3e 3c 0f 63 2d 3d
       0.015671281 -0.02617575 0.011610394 0.042330798
000160 46 0d 92 39 5f 08 28 bf 3c 07 28 3c aa 7e 96 bc
       0.0002785718 -0.65637773 0.010255631 -0.018370945
000170 bd 48 14 3f a1 77 90 3c 76 cb 45 3d 11 28 6c bc
       0.5792349 0.017635169 0.04828974 -0.014413849
000180 99 00 c1 3c e1 1b 9c bd 2d 19 63 3b 88 16 e3 3c
       0.023559855 -0.07622505 0.0034652457 0.027720705
000190 48 f6 46 3a f6 75 04 3f c9 cc 2a 3d 35 7c 67 bc
       0.00075897994 0.51742494 0.041699205 -0.014128734
0001a0 4c 12 e0 3c c2 8f 25 bd a8 05 0e 3d 53 9d cf bb
       0.027352475 -0.0404203 0.034673363 -0.006335893
0001b0 25 2d e0 3c 8a f1 90 bb d1 0a d2 bb bc b8 74 bc
       0.027365277 -0.004423325 -0.006409981 -0.014936622
0001c0 c1 b7 78 3c 06 23 a3 bc 30 2b 2b bf 27 aa 6b 3e
       0.015180529 -0.019914161 -0.66862774 0.23014127
0001d0 c0 12 1d bb ab 52 df bc f8 bc 2f bd 4e cd 3b bc
       -0.0023967475 -0.027261099 -0.042904824 -0.011462523
0001e0 dc c5 81 be c7 e1 b0 3c 47 ef af bc c5 4f be 3b
       -0.25346267 0.021592034 -0.021476401 0.005807849
0001f0 78 52 bb be 70 bf 74 bc fc 12 34 3e 40 b8 ea bc
       -0.36586356 -0.01493822 0.17585367 -0.02865231
000200 8c fe 26 bf 30 80 37 3d e5 29 c9 bd 55 8f 9f bd
       -0.6523216 0.044799984 -0.09822444 -0.0779101
000210 a9 cb cf 38 a8 5c b0 bd e5 fd cf bc 8d 5c 57 3e
       9.908464e-05 -0.08611423 -0.025389621 0.21031399
000220 1a 06 14 3c b3 32 36 bd ab 7d ac bc 61 03 e4 bc
       0.009034658 -0.044481944 -0.021056017 -0.027833642
000230 ce 0d e8 bc 4a d5 28 bd 25 a9 ed 3c 9d da 22 bf
       -0.028326895 -0.041219033 0.029011318 -0.6361483
000240 0e 29 56 3b 3b 49 c4 3c d2 3e 2e bd 32 28 2c bc
       0.003267828 0.0239607 -0.04254038 -0.01050763
000250 f7 72 3c bd 30 a2 08 bd 8e e0 8b bb c8 58 10 bd
       -0.046008077 -0.0333578 -0.0042687124 -0.03524092
000260 c0 2f 9b bd 10 06 e8 3c 04 50 9e 3c ef ff 5b bc
       -0.07577467 0.028323203 0.019325264 -0.013427719
000270 07 c3 0a 3d b0 f5 81 bc 64 18 f3 b8 12 15 ce bc
       0.0338774 -0.015864223 -0.00011591686 -0.025156531
000280 04 3e 17 bd 6f ac 4e bc f4 15 9b 3e 9e d6 2d 3d
       -0.036924377 -0.012614354 0.30290186 0.042441003
000290 fa 81 b4 3c fd 67 3c bd b3 2c 02 3d 99 56 04 bd
       0.022034634 -0.04599761 0.03178091 -0.03230915
0002a0 bb 1b c1 bc d5 70 3f bd 7d 7e 33 3c 57 3f 87 39
       -0.023572793 -0.046738464 0.01095545 0.00025796398
0002b0 6d cd bd be c2 fe ca bc 1a 5b 15 3d 52 33 08 bd
       -0.3707079 -0.024779681 0.036463834 -0.033252068
0002c0 b0 8e f8 bc ec 50 28 bf 24 c3 95 3b 31 18 c0 bb
       -0.030341476 -0.65748477 0.0045703817 -0.005862259
0002d0 52 93 5f bb 9a eb 90 bc 93 cb c6 bc b7 fe 50 bd
       -0.003411491 -0.017690469 -0.024266994 -0.051024165
0002e0 50 68 6c bf 5a 19 a1 3c cb 82 ee 3a 1a 04 0c 3d
       -0.9234667 0.019665409 0.0018196938 0.0341836
0002f0 d6 31 63 bc 16 b8 11 bf b2 7f 6d bd 87 7a e2 bc
       -0.013866862 -0.5692152 -0.057983108 -0.027646316
000300 72 eb 17 bd e3 6b 47 3c 80 13 0d bc aa 6a 84 3c
       -0.037089773 0.012171718 -0.008610606 0.016164143
000310 e4 c7 fb 3e 4d d0 cd be 38 f4 25 bd 3a 9b 91 3c
       0.49175942 -0.40197983 -0.04051611 0.017774213
000320 32 4a 8e bd f4 e8 83 bd 1d cd 69 bd eb 5e 3c 3f
       -0.069477454 -0.06440917 -0.057080377 0.73582333
000330 1a c7 44 3d a7 49 8c 3c 97 60 21 3b c1 05 a5 3b
       0.04804144 0.017124964 0.0024624222 0.0050360863
000340 37 5b ba 3a 22 6f 00 bb b3 3c 1d 3c 80 da 03 bf
       0.0014217858 -0.001959749 0.009596991 -0.5150528
000350 de 4d 91 bf c5 01 97 bc c0 d8 9a 3e 63 29 89 ba
       -1.1351888 -0.018433461 0.30243492 -0.0010464605
000360 de 13 19 bb 27 8a 15 bc 6e 86 d3 3a 01 dc 4e bd
       -0.002335779 -0.009127176 0.0016138086 -0.05050278
000370 58 f4 20 3c 02 f5 15 bc 95 66 97 3e 9d 38 b2 3e
       0.009823881 -0.009152653 0.2957045 0.34808818
000380 79 be b1 bc 5b 51 38 3c 30 5a 99 3c 56 78 e7 3e
       -0.02169727 0.011249865 0.018719763 0.45208997
000390 4b d1 3b 3c bc cf 3e bd 50 0d 2e 3d ba a2 f3 bb
       0.011463474 -0.04658483 0.042493165 -0.00743517
0003a0 04 18 6f bd 4f 02 20 bd 8b 37 2d 3b 99 73 03 bd
       -0.058372512 -0.0390647 0.0026430811 -0.032092664
0003b0 76 0c 0b 3d ae 09 1c 3d 8e b5 43 be 9a 35 1e bd
       0.03394743 0.03809517 -0.19112226 -0.038625337
0003c0 38 3d b0 bc 16 1a fe 3c 88 a6 f5 ba 62 3a 93 3b
       -0.021513566 0.031018298 -0.0018741647 0.0044930438
0003d0 c4 31 15 3c 00 0f 34 be cf a5 36 3c 5e f0 a1 bf
       0.009106103 -0.17583847 0.01114793 -1.2651479
0003e0 08 f6 19 3d 0c ab 12 3d 4a 8c ce 3b 74 6e ab bd
       0.03758815 0.035807654 0.006303345 -0.08370677
0003f0 cc 7f 3e bd 0d 3a 00 bd 11 ee 2f bd 9d 92 a4 bc
       -0.046508595 -0.03130536 -0.042951647 -0.020089442
