saves/best_avg_critic.pth (torch, 984497 bytes, 10 tensors)

l1.weight f4 [400, 4]
0	0xbe840ca9	-0.2579091
1	0x3f0d872c	0.5528438
2	0x3d6adad1	0.057337586
3	0xbe918121	-0.2841883
4	0x3e811df9	0.2521818
5	0xbec6a8d5	-0.38800684
6	0x3e506d84	0.20354277
7	0x3cdba96c	0.026814185
8	0xbc18db85	-0.009329681
9	0xbf55a9ed	-0.8346241
10	0xbe2e7cdd	-0.17039819
11	0xbca02c42	-0.019552354
12	0x3f882926	1.0637558
13	0xbeac5809	-0.33660915
14	0x3dc86f05	0.097868
15	0x3d40988e	0.047020487
16	0xbe32ba47	-0.17453872
17	0xbe5973f8	-0.21235645
18	0x3d2a8108	0.04162696
19	0x3d0de179	0.034638856
20	0x3ee9abbf	0.45638844
21	0xbf29c9ad	-0.6632336
22	0x3e607ff6	0.21923813
23	0x3c3a01d3	0.011352974
24	0xbd1dbcca	-0.03851012
25	0x3e87ad3c	0.26499355
26	0x3e9464f4	0.2898327
27	0x3e76b059	0.24090709
28	0xbe256b58	-0.1615423
29	0xbefc850f	-0.49320266
30	0xbe653a29	-0.22385468
31	0x3ca29514	0.019846477
32	0x3eb377a0	0.35052204
33	0xbf616f64	-0.88060594
34	0x3df880af	0.121339194
35	0x3e6422a5	0.22278841
36	0xbf2186be	-0.63096225
37	0xbf0b6325	-0.5444816
38	0xbe69e1c1	-0.22840025
39	0x3e294f48	0.1653415
40	0xbe6ded39	-0.23235025
41	0xbf960c4a	-1.17225
42	0xbe13ebcf	-0.14445423
43	0xbc245584	-0.010030154
44	0x3ed2bf69	0.4116166
45	0x3f05abf0	0.5221548
46	0xbe15fcd3	-0.14647226
47	0xbd869c36	-0.065727636
48	0xbe23a30f	-0.1598017
49	0x3ea4c7b4	0.3218361
50	0x3d04ceb5	0.032423694
51	0x3d97e526	0.074167535
52	0xbf2d78ad	-0.6776226
53	0x3c933cdf	0.017973362
54	0xbe24c131	-0.16089322
55	0x3e02f3e6	0.12788352
56	0xbee6e641	-0.45097545
57	0x3e57ce12	0.21074703
58	0xbe78008a	-0.24218956
59	0xbe869609	-0.26286343
60	0x3f82e0e4	1.0224881
61	0xbfc0fb21	-1.5076638
62	0xbecafcb2	-0.39645916
63	0xbdcd0855	-0.10011355
64	0xbe8e8faf	-0.27843997
65	0x3f00f0db	0.50367516
66	0xbe9241e3	-0.28565893
67	0x3dacb071	0.08432091
68	0x3f7be1b8	0.98391294
69	0x3df08fc1	0.11746169
70	0xbea8405a	-0.32861596
71	0xbe226fd7	-0.15862976
72	0xbd378aa4	-0.044809952
73	0x3bc9b560	0.006155655
74	0xbe9e3a2f	-0.30903766
75	0xbe341303	-0.17585377
76	0x3fb15cda	1.3856461
77	0x3eae7cac	0.34079492
78	0x3d9d5368	0.07681924
79	0xbce25d1e	-0.027632292
80	0xbec1c83d	-0.37848082
81	0xbe860066	-0.2617218
82	0xbed58135	-0.4170014
83	0x3d8258de	0.06364606
84	0x3f04b365	0.51836234
85	0xbe8d02d7	-0.2754123
86	0xbe8b0f90	-0.2716031
87	0xbd262da0	-0.040570855
88	0xbeb5e216	-0.35524052
89	0x3e0b9e5a	0.13634625
90	0x3e04fb65	0.12986524
91	0xbe6f4499	-0.23366012
92	0x3f1b247f	0.60602564
93	0x3eb31622	0.34977823
94	0xbe6d6cf1	-0.23186089
95	0x3d58297d	0.05277394
96	0x3ed0262e	0.4065413
97	0xbedff25f	-0.43739602
98	0xbd096135	-0.03353997
99	0x3f1d7c4f	0.61517805
100	0x3f26a282	0.6509172
101	0xbe49e03e	-0.19714448
102	0x3dbd8cfb	0.092554055
103	0xbf067ba9	-0.5253244
104	0x3e7b813b	0.24561016
105	0x3eced301	0.40395358
106	0xbe4c1b0e	-0.19932196
107	0xbd988c97	-0.074486904
108	0x3f81cdee	1.014097
109	0x3f3fcd18	0.74922323
110	0x3eb38036	0.35058755
111	0x3d717654	0.058950737
112	0x3ca82672	0.020526145
113	0xbe767b20	-0.24070406
114	0x3e9cc96b	0.3062242
115	0x3ca05c50	0.019575268
116	0x3e9721f0	0.2951808
117	0x3f6de359	0.9292503
118	0x3e218c7b	0.15776245
119	0x3cef7893	0.029232299
120	0xbe53caa0	-0.20682764
121	0xbf4d94e1	-0.80305296
122	0x3dfa3fbd	0.12219188
123	0xbcf1becf	-0.02950993
124	0x3ede432d	0.43410626
125	0xbf8e324e	-1.1109102
126	0xbe4d92f7	-0.20075594
127	0xbd198d8c	-0.037488505
128	0xbe74ed2d	-0.239186
129	0x3f6f4d1f	0.9347705
130	0x3ebf26d5	0.37334314
131	0x3d9294b4	0.07157269
132	0xbe1ce081	-0.15320016
133	0x3e374046	0.17895612
134	0xbea102be	-0.31447405
135	0xbd899621	-0.06718088
136	0x3f0d1ebf	0.5512504
137	0x3f2dcaaf	0.67887396
138	0xbe1d2598	-0.15346372
139	0xbb997cfd	-0.004684089
140	0xbe3dded4	-0.18542033
141	0xbea559af	-0.32294986
142	0xbe8b185c	-0.27167022
143	0x3e1ef660	0.15523672
144	0x3e7dce12	0.24785641
145	0xbf302fca	-0.6882292
146	0x3e9614b6	0.29312676
147	0x3de6e1c3	0.112735294
148	0xbed0949f	-0.4073839
149	0x3f0c98b4	0.54920506
150	0x3e8da3f8	0.2766416
151	0x3bc1b144	0.0059110243
152	0x3efca2b1	0.49342874
153	0x3f277da7	0.65426105
154	0xbe26887e	-0.16263005
155	0x3ccb5196	0.024819177
156	0x3e3818ec	0.17978257
157	0x3fa1b855	1.2634379
158	0x3ea20504	0.31644452
159	0x3d69d6f8	0.057089776
160	0xbe468820	-0.19387865
161	0xbdcbfd79	-0.099604554
162	0xbe356d39	-0.17717446
163	0x3ea6a22c	0.32545602
164	0xbe6f5c79	-0.2337512
165	0xbd99f3dd	-0.07517216
166	0xbe27c3ac	-0.16383237
167	0xbf0bd588	-0.546227
168	0xbf13940f	-0.57647794
169	0x3f0a2b8b	0.5397269
170	0x3e0cfe4e	0.13768885
171	0xbe887aea	-0.26656276
172	0x3f0e35bd	0.5555075
173	0xbefabe7a	-0.48973447
174	0x3e9ac81b	0.30230793
175	0x3d4cbdd7	0.049985733
176	0xbf2dd70a	-0.6790625
177	0x3f3183de	0.6934184
178	0xbc477eec	-0.012176257
179	0xbcdfd518	-0.02732329
180	0xbe67abdf	-0.22624157
181	0x3fcc67ca	1.5969174
182	0x3e972077	0.29516956
183	0x3ce964ba	0.028490413
184	0x3f6a03e1	0.9141217
185	0xbf6d9fbe	-0.9282187
186	0xbe8395b5	-0.25700155
187	0xbcf92bde	-0.030416425
188	0xbed9bfa7	-0.42529032
189	0x3dc06b7a	0.093954995
190	0x3ea8d6b0	0.32976294
191	0x3cb7a284	0.02241636
192	0xbee25377	-0.44204304
193	0xbf93851e	-1.1524999
194	0xbe06386a	-0.13107458
195	0x3d2b588e	0.0418325
196	0x3e4150e7	0.18878518
197	0x3e65cc8f	0.22441314
198	0xbd84aa83	-0.06477835
199	0xbdc14c8f	-0.094384305
200	0xbf10d5e7	-0.5657639
201	0x3df2b30b	0.11850556
202	0xbde2816e	-0.11059843
203	0xbe2125ca	-0.15737072
204	0xbeb8bae1	-0.36080077
205	0x3d0ffb69	0.035151873
206	0x3e53f9b6	0.20700726
207	0xbd4e7eab	-0.05041377
208	0xbeaa555d	-0.33268252
209	0xbe9c5886	-0.30536288
210	0x3e6b230e	0.22962591
211	0x3e4eda4c	0.20200461
212	0xbe98db1d	-0.2985467
213	0x3f7b65a6	0.9820198
214	0x3e059704	0.13045889
215	0x3d7c711e	0.061631314
216	0x3e809b77	0.2511861
217	0xbee23ab5	-0.44185415
218	0x3dff23f7	0.124580316
219	0x3d03db3b	0.032191496
220	0xbe052b85	-0.13004883
221	0x3fb5ecf7	1.4212941
222	0x3e19ff72	0.15038851
223	0x3d11fc2b	0.035640877
224	0xba993212	-0.0011687896
225	0x3ef8403b	0.48486504
226	0xbe69165b	-0.22762434
227	0x3d424f3d	0.04743885
228	0x3ed23034	0.410524
229	0xbf012baa	-0.5045725
230	0x3d6c1b54	0.05764325
231	0xbe974993	-0.2954832
232	0x3f6df4f7	0.9295191
233	0xbf36810a	-0.7129065
234	0xbea3bc8e	-0.31979793
235	0xbd6e384b	-0.058159154
236	0x3f53e8ac	0.82776904
237	0xbf8c18b5	-1.094504
238	0xbe47c561	-0.19508888
239	0xbd3152db	-0.043291908
240	0x3f8be6c1	1.0929796
241	0x3f36c410	0.7139292
242	0x3e4c6264	0.19959408
243	0x3e40fcca	0.18846431
244	0x3f3421ad	0.70363885
245	0xbf2c1754	-0.67223096
246	0xbe7b0966	-0.24515304
247	0xbce66d50	-0.028128296
248	0xbca0eca3	-0.019644087
249	0x3ec0e61a	0.37675554
250	0xbecc466e	-0.39897484
251	0x3c725e51	0.014792995
252	0xbea36002	-0.31909186
253	0xbedb0503	-0.4277726
254	0xbdca90cc	-0.09890899
255	0x3ece681a	0.40313798

l1.bias f4 [400]
0	0x3eb16624	0.3464824
1	0xbe8a6bcf	-0.27035376
2	0x3b067b97	0.0020520443
3	0xbc261ce4	-0.010138724
4	0x3ed0f20b	0.40809664
5	0xbe7aef01	-0.24505235
6	0xbea7573a	-0.32683736
7	0x3e8fc2bb	0.28078255
8	0x3eff732a	0.4989255
9	0x3f1cdfe2	0.6127912
10	0xbe6a106a	-0.22857824
11	0x3e43e808	0.19131482
12	0x3e124d3b	0.14287274
13	0x3f1269e3	0.5719282
14	0x3eb00b02	0.34383398
15	0xbe903c18	-0.28170848
16	0x3ee3497b	0.44392
17	0xbe3cf653	-0.1845334
18	0xbf0e2e47	-0.55539364
19	0x3e55daed	0.20884295
20	0x3f0085ac	0.5020397
21	0xbf560356	-0.8359884
22	0x3cb66472	0.022264693
23	0xbef4c23e	-0.47804445
24	0xbe15b4fa	-0.14619818
25	0xbe8e92ff	-0.27846524
26	0x3e53ba92	0.2067664
27	0xbf31f5e9	-0.69515854
28	0xbec75d5e	-0.3893842
29	0x3cdcc478	0.026949152
30	0xbea958df	-0.33075616
31	0xbde5273e	-0.111891255
32	0xbeb36136	-0.35035104
33	0xbf162e2b	-0.58664197
34	0x3decdd3d	0.11565635
35	0xbf35bf59	-0.709951
36	0xbf132399	-0.5747619
37	0xbed44dd3	-0.41465625
38	0x3d8b034d	0.06787739
39	0x3e03bf1a	0.12865868
40	0x3e3147a3	0.17312483
41	0x3c955314	0.018228091
42	0x3ef1e7c7	0.47247145
43	0xbe57cc5d	-0.21074052
44	0x3eb8cb29	0.360925
45	0xbe7edfb7	-0.24890028
46	0xbeff62a0	-0.49879932
47	0xbf4a2611	-0.78964335
48	0xbe0841fe	-0.13306424
49	0x3e842446	0.25808924
50	0x3e6b06de	0.22951838
51	0x3e9cf021	0.30651954
52	0xbf109634	-0.5647919
53	0xbdcd1c84	-0.100152045
54	0xbe3e684b	-0.18594472
55	0xbec07715	-0.37590852
56	0x3e8a558e	0.27018398
57	0x3e5f9c2b	0.21836917
58	0xbf130632	-0.5743133
59	0xbeebbbae	-0.46041626
60	0xbdd1be81	-0.10241414
61	0xbec7c358	-0.39016223
62	0xbf2847f8	-0.65734816
63	0xbf06d679	-0.5267101
64	0xbf185686	-0.59507024
65	0xbea1741c	-0.31533897
66	0x3f23fee8	0.6406083
67	0x3ea05f41	0.31322673
68	0x3deeb64c	0.11655864
69	0xbeb8a6ab	-0.36064658
70	0xbe9029e1	-0.2815695
71	0x3ec3758a	0.38175613
72	0xbf5e1ff0	-0.8676748
73	0xbe94a8a4	-0.29034913
74	0xbd0ce57b	-0.034398537
75	0x3ced1c0d	0.02894404
76	0xbe925ae9	-0.28584984
77	0xbf37d667	-0.71811527
78	0xbefa4de8	-0.48887563
79	0xbf56300c	-0.83667064
80	0xbd9bbcab	-0.07604345
81	0x3f037550	0.5135088
82	0xbebd8903	-0.37018594
83	0x3eaac0af	0.3335013
84	0x3e9e9eca	0.3098052
85	0xbe924bd8	-0.2857349
86	0xbf55d063	-0.835211
87	0x3f1847f4	0.5948479
88	0xbed69f6a	-0.41918498
89	0xbecd0600	-0.4004364
90	0x3b188a69	0.0023275858
91	0xbe9f14c2	-0.31070524
92	0xbe205d8a	-0.15660682
93	0x3efcbd37	0.4936311
94	0x3d525fd2	0.051360913
95	0xbf13c894	-0.5772793
96	0xbeb9d4a9	-0.3629506
97	0xbf0c4821	-0.5479756
98	0xbd11986d	-0.035545755
99	0xbe9bebbb	-0.30453286
100	0xbefb5365	-0.49087062
101	0x3ed97100	0.42469025
102	0x3ea05f5b	0.3132275
103	0xbf0d76ce	-0.55259407
104	0x3eccbf3c	0.3998965
105	0xbe7d7dda	-0.2475504
106	0xbdc8d9c3	-0.0980716
107	0xbe3bb77d	-0.18331714
108	0x3f0f58ff	0.5599517
109	0xbf65265c	-0.89511657
110	0xbd33b063	-0.043869387
111	0xbebf255f	-0.373332
112	0xbf0b0b8b	-0.5431449
113	0xbea052e0	-0.3131323
114	0xbf47774e	-0.7791642
115	0xbc98bf94	-0.01864604
116	0xbf7f7f8b	-0.9980399
117	0x3f0b63a4	0.54448915
118	0xbf20719f	-0.6267337
119	0x3eb69a5d	0.35664645
120	0x3ee60b5e	0.44930547
121	0xbf80ca14	-1.0061669
122	0x3f2dc68f	0.678811
123	0x3ed17b1e	0.40914243
124	0x3f2e68f2	0.68128884
125	0xbd14d7b8	-0.036338538
126	0x3e0a72ee	0.13520405
127	0x3ed7863d	0.42094603
128	0x3f3e9db0	0.7445936
129	0xbe4873d3	-0.19575433
130	0xbeb8c314	-0.36086333
131	0xbf5aedb8	-0.8551898
132	0x3f043ef9	0.5165859
133	0x3dc2c05e	0.095093474
134	0x3e8ca9ae	0.27473205
135	0xbe1b8643	-0.15187936
136	0xbe0e6c96	-0.1390861
137	0xbc3ad60d	-0.011403573
138	0x3d7b4f26	0.06135478
139	0x3df0e95a	0.11763258
140	0x3eb9f77c	0.36321628
141	0xbf64a944	-0.8932078
142	0x3f1ac373	0.6045448
143	0x3f08b997	0.5340819
144	0x3ed3f0d0	0.41394663
145	0x3ea8beb7	0.32958004
146	0xbc71b91f	-0.014753609
147	0xbe40559f	-0.18782662
148	0xbf458d2f	-0.77168554
149	0x3dca9865	0.09892348
150	0x3cd05d8a	0.025435228
151	0xbf1e61bc	-0.6186788
152	0x3f018e2f	0.5060758
153	0x3ec4b9fd	0.38423148
154	0x3e50e801	0.20401002
155	0x3ea28f56	0.31749982
156	0x3ec6e071	0.3884311
157	0xbe0df5b4	-0.1386326
158	0xbf09eda6	-0.5387825
159	0xbe9e0471	-0.30862764
160	0x3f0d01f8	0.5508113
161	0xbec422c0	-0.38307762
162	0xbefe5fcb	-0.4968246
163	0x3d854aa2	0.06508376
164	0xbde109a3	-0.10988166
165	0x3f33f1a4	0.7029059
166	0xbea09c74	-0.31369364
167	0x3e054d10	0.13017678
168	0xbf0119b5	-0.5042985
169	0xbe7a0619	-0.24416389
170	0xbe12b96c	-0.14328545
171	0x3f39f0b6	0.7263292
172	0xbef8a699	-0.48564604
173	0xbeb97ace	-0.36226505
174	0xbcb49c85	-0.02204729
175	0xbeb25b6e	-0.3483538
176	0x3e013a2e	0.1261985
177	0xbf04e0f1	-0.51905733
178	0x3e78aa83	0.24283795
179	0x3e81054a	0.25199348
180	0x3ef1d67b	0.47233948
181	0xbf028c83	-0.50995654
182	0x3e227555	0.15865071
183	0xbf161859	-0.586309
184	0xbf2cf75b	-0.67564934
185	0x3f1603d9	0.5859962
186	0xbe2c07e1	-0.1679988
187	0xbea6f5ea	-0.32609493
188	0xbf81e88f	-1.0149096
189	0x3f00b020	0.50268745
190	0x3f19c715	0.600694
191	0xbf088cfa	-0.53340113
192	0xbdf580ea	-0.11987479
193	0xbf16aa0a	-0.5885321
194	0x3e8e4333	0.27785644
195	0xbf09813f	-0.5371284
196	0xbeaada9a	-0.33369905
197	0xbf76f644	-0.9646952
198	0x3e787228	0.24262297
199	0xbf932a03	-1.1497196
200	0xbf13ed6a	-0.5778414
201	0xbe39f089	-0.18158163
202	0xbead5955	-0.33857217
203	0x3e919480	0.2843361
204	0xbf34ca5b	-0.7062127
205	0xbe514e60	-0.20440054
206	0x3d531e10	0.05154234
207	0x3efd0038	0.4941423
208	0xbf35bda8	-0.7099252
209	0x3daadfdc	0.08343479
210	0xbf0b4622	-0.5440389
211	0xbf51b630	-0.8191862
212	0xbe45bd04	-0.19310385
213	0x3e8922a0	0.2678423
214	0xbf102be2	-0.5631696
215	0xbf18c2c8	-0.5967221
216	0xbe69d717	-0.22835957
217	0x3cf10335	0.029420475
218	0xbf81e390	-1.0147572
219	0x3f1d82c8	0.6152768
220	0xbeb19c50	-0.3468957
221	0x3f1368a0	0.5758152
222	0x3e18acfc	0.14909738
223	0x3ec3c44a	0.38235694
224	0x3e0788c5	0.13235767
225	0x3e67c78a	0.22634712
226	0xbe50fd94	-0.20409232
227	0xbf5e0a16	-0.8673414
228	0xbe828f2d	-0.2549986
229	0x3e8953fa	0.26821882
230	0xbe935112	-0.2877279
231	0x3f004859	0.50110394
232	0xbe90d6b2	-0.282888
233	0xbf4cbd9b	-0.79976815
234	0xbf455598	-0.7708373
235	0x3e183e5d	0.1486754
236	0x3eda703f	0.42663762
237	0xbe938083	-0.28808984
238	0x3e136691	0.14394595
239	0xbeb46806	-0.35235614
240	0xbeed21c3	-0.4631482
241	0xbeb970c9	-0.3621886
242	0x3e0e7c9c	0.13914722
243	0x3eb5551c	0.35416496
244	0xbf135b41	-0.5756112
245	0x3e126f86	0.14300355
246	0x3ef04fd2	0.46935898
247	0x3ec26d73	0.37974128
248	0xbf17575b	-0.5911767
249	0xbe30d824	-0.17269951
250	0xbee85ab5	-0.45381704
251	0x3edfdcc4	0.43723118
252	0x3ea064f6	0.31327027
253	0xbf0ff557	-0.56233734
254	0xbe3bf8d5	-0.1835664
255	0x3e8d7091	0.27624944

l2.weight f4 [300, 400]
0	0x3dab8f06	0.08376889
1	0xbe2da66c	-0.16958016
2	0xbd8d3e8d	-0.06896696
3	0x3e8b4374	0.271999
4	0x3cf6021f	0.030030308
5	0xbd6dee1e	-0.058088414
6	0xbe28681d	-0.16445966
7	0x3c9aed0f	0.018911866
8	0x3e21cff5	0.15801986
9	0x3ddeb67a	0.108746484
10	0xbe9b6e6c	-0.30357683
11	0x3d72afd4	0.059249714
12	0xbd40e4a0	-0.047093034
13	0x3df03340	0.11728525
14	0xbcceb23e	-0.025231477
15	0xbd2760b6	-0.040863715
16	0x3d397426	0.045276783
17	0x3e3fe06b	0.18737952
18	0x3ca5b126	0.020226073
19	0x3ed42644	0.41435444
20	0x3d90058f	0.0703231
21	0xbd704cbb	-0.058666926
22	0x3ddaa018	0.10675067
23	0x3d76d429	0.060260925
24	0xbdb87d03	-0.09008219
25	0x3b422aa9	0.0029627478
26	0x3d230934	0.0398037
27	0xbeab5178	-0.33460593
28	0xbe605328	-0.21906722
29	0x3da07226	0.07834272
30	0xbe1c121b	-0.15241282
31	0xbc4e3170	-0.012585029
32	0xbe1ec45e	-0.15504596
33	0x3cac9540	0.021067262
34	0xbdb9729f	-0.09055065
35	0xbd722260	-0.059114814
36	0xbe8e6d2f	-0.27817675
37	0xbe99a5eb	-0.30009398
38	0x3dea7a8b	0.114491545
39	0xbdc347e3	-0.09535196
40	0x3d6bfb8e	0.057612948
41	0x3dc3d0f6	0.095613405
42	0x3db03b06	0.08605008
43	0xbd925c03	-0.07146456
44	0x3e36f6d6	0.17867598
45	0x3c517172	0.012783395
46	0x3e41954b	0.18904607
47	0xbe4cbcd4	-0.19993907
48	0x3df709e9	0.12062437
49	0x3d510256	0.05102762
50	0x3beeb029	0.0072841835
51	0x3d100ae1	0.035166625
52	0xbe63fd89	-0.22264685
53	0x3d7ce24b	0.061739247
54	0xbcc5c46b	-0.024141511
55	0x3d20872f	0.03919142
56	0xbc97c757	-0.01852767
57	0x3d00e00f	0.03146368
58	0x3d17fb5a	0.037104942
59	0x3dae0fe8	0.084991276
60	0x3dfa1d8f	0.12212669
61	0xbda457d7	-0.080245666
62	0xbd719f8e	-0.058990054
63	0x3c88239a	0.016618539
64	0xbe87a3cf	-0.26492164
65	0x3c2a1c19	0.010382676
66	0x3e1d612c	0.153691
67	0x3e0da6d5	0.13833173
68	0xbd93cc69	-0.072167225
69	0xbad16ff3	-0.0015978798
70	0xbdeaca44	-0.1146436
71	0x3bd4b86e	0.0064917123
72	0xbe5acb2b	-0.21366565
73	0xbd1d524f	-0.038408574
74	0x3d54f8a0	0.05199492
75	0x3dd95bbe	0.106132016
76	0xbe15017d	-0.14551349
77	0x3e6f0375	0.23341163
78	0x3d8e1814	0.06938186
79	0x3dea546b	0.11441883
80	0x3c93f933	0.018063163
81	0x3d2c5b8d	0.042079497
82	0xbe182313	-0.1485713
83	0x3dfa346a	0.122170284
84	0x3e02b14b	0.12762944
85	0xbea2e813	-0.31817684
86	0xbee56bcd	-0.44808808
87	0x3dcccceb	0.100000225
88	0x3d1d0945	0.03833892
89	0x3d18bf74	0.03729196
90	0x3d8ede25	0.069759645
91	0xbd8f5bc3	-0.06999924
92	0xbd039669	-0.032125864
93	0x3dea4801	0.11439515
94	0xbb311b92	-0.002702449
95	0xbc69ebd7	-0.01427742
96	0x3eeaaed9	0.45836523
97	0xbcd3e571	-0.025866242
98	0xbc9eaeb3	-0.019370412
99	0x3c3ce962	0.011530252
100	0x3c8212c3	0.015878087
101	0x3dcfee08	0.10152823
102	0x3e08bc31	0.1335304
103	0x3d7d18f5	0.06179138
104	0x3da4a226	0.0803874
105	0x3d112579	0.035436127
106	0x3d5dec98	0.05418071
107	0x3c616b10	0.013758436
108	0x3dcfbf47	0.10143905
109	0x3e918257	0.28419754
110	0x3bfaa983	0.007649602
111	0xbe3d3606	-0.1847764
112	0xbecdfaf4	-0.40230525
113	0xbd36434e	-0.04449778
114	0x3dc0e984	0.094195396
115	0xbc10cf97	-0.008838556
116	0x3b09eb4f	0.0021044796
117	0x3deea756	0.116530105
118	0xbe4cbcb8	-0.19993865
119	0x3e34f9b7	0.17673384
120	0x3d5c3b83	0.053767692
121	0x3d14f755	0.036368687
122	0x3ddf382c	0.10899386
123	0x3d23b8a2	0.039971
124	0x3d8234f0	0.06357753
125	0xbdbd1635	-0.09232751
126	0x3e60ff1f	0.21972321
127	0x3dace400	0.08441925
128	0x3db849c3	0.08998444
129	0xbcedaba1	-0.029012503
130	0xbdce1b00	-0.100637436
131	0xbd97aab1	-0.07405604
132	0x3dd1daf8	0.10246843
133	0x3e01e8ca	0.12686458
134	0x3b41f0b1	0.0029592926
135	0xbcb8a7e6	-0.022540998
136	0xbd322227	-0.0434896
137	0xbdebc10e	-0.11511432
138	0xbda20d12	-0.07912649
139	0xbd7a14a6	-0.061054848
140	0x3d399760	0.045310378
141	0xbd9827b1	-0.074294455
142	0x3e0498b6	0.1294888
143	0x3e1122f2	0.14173487
144	0x3ddc8632	0.10767783
145	0x3db0ac12	0.0862657
146	0x3e099edf	0.13439511
147	0xbd19ee33	-0.03758068
148	0xbdfc1b86	-0.12309937
149	0x3ebcf6a0	0.3690691
150	0x3d5aee25	0.05344977
151	0x3f0800be	0.5312613
152	0x3dd55c6d	0.104180194
153	0x3df42223	0.119205736
154	0x3e245df1	0.16051461
155	0x3ce1e23d	0.0275737
156	0x3e04e3de	0.1297755
157	0xbdf2e334	-0.11859742
158	0xbeb4dc45	-0.35324302
159	0xbe204c6f	-0.15654157
160	0x3d9e7de0	0.077388525
161	0x3d9cc1f2	0.0765418
162	0x3e91b803	0.28460702
163	0xbdf2c82a	-0.118545845
164	0x3e6d389f	0.2316613
165	0x3e11135b	0.1416754
166	0xbe965b8d	-0.29366723
167	0x3df5e7bd	0.12007091
168	0x3de87c38	0.11351818
169	0x3d1d8ae6	0.038462542
170	0x3dee3de0	0.116328955
171	0x3d9cf12c	0.076631874
172	0xb982a2e2	-0.0002491689
173	0x3be77143	0.0070630624
174	0x3d78b14e	0.060715966
175	0xbc403365	-0.011731003
176	0x3da90337	0.08252566
177	0xbdc6e045	-0.09710745
178	0x3dfde400	0.12397003
179	0xbd23944b	-0.039936345
180	0x3e142f09	0.14471067
181	0x3d6408ac	0.055672333
182	0x3d8a5cae	0.067559585
183	0xbe390bb8	-0.18070877
184	0xbdc20a47	-0.094746165
185	0x3dfbcbe3	0.12294748
186	0xbe94fcd5	-0.29099146
187	0xba397e43	-0.00070760044
188	0xbdcca547	-0.09992462
189	0x3d7c3aa9	0.06157938
190	0x3d9e37f3	0.07725515
191	0x3d5e019f	0.054200765
192	0xbc90d51c	-0.017679743
193	0x3ce537f7	0.027980788
194	0x3e132d4a	0.14372745
195	0xbc9d79a2	-0.019223038
196	0x3d28a150	0.041169465
197	0xbf5723a3	-0.8403875
198	0x3ce6c079	0.02816795
199	0xbf95ae7d	-1.1693875
200	0xbd97121d	-0.07376502
201	0xbd75d70b	-0.060019534
202	0xbc8e5ea7	-0.017379118
203	0x3d911f1a	0.0708601
204	0xbdcbf863	-0.099594854
205	0xbddbfaf5	-0.10741226
206	0x3df96743	0.12177899
207	0x3dc05bfc	0.093925446
208	0xbccde8ae	-0.025135364
209	0x3dd456a5	0.10368089
210	0xbd3a905c	-0.045547828
211	0xbe867b94	-0.26266158
212	0xbcdb914b	-0.02680268
213	0x3ca4e73a	0.020129789
214	0xbd184491	-0.037174765
215	0x3b7cd5b5	0.0038579528
216	0xbe282e55	-0.16423924
217	0x3c949793	0.018138682
218	0xbe2f7c83	-0.17137341
219	0x3da18cff	0.07888221
220	0x3d9b7c12	0.07592024
221	0x3e05aa31	0.13053204
222	0xbdec9fca	-0.11553915
223	0x3c933b43	0.017972594
224	0x3cdac1ef	0.026703803
225	0xbd866016	-0.06561296
226	0x3cf96cf8	0.030447468
227	0xbe32f43c	-0.1747598
228	0x3d960ac6	0.073262736
229	0x3c714dba	0.014728004
230	0xbe15a092	-0.14612034
231	0x3d585af8	0.05282113
232	0xbcb8b0e2	-0.022545282
233	0xbf0e8c03	-0.5568239
234	0xbe6e5cc7	-0.23277579
235	0x3d256f95	0.040389616
236	0x3dfba6e4	0.12287691
237	0x3dbe5e1b	0.09295293
238	0x3ebd875a	0.37017328
239	0x3de5a6f2	0.11213483
240	0x3cb2761e	0.021784838
241	0xbe71b722	-0.23605016
242	0xbc98ca2b	-0.018651089
243	0x3e231da0	0.1592927
244	0xbe7df66f	-0.24801038
245	0xbc4fac57	-0.012675366
246	0x3e33e5d4	0.17568141
247	0x3e17d99a	0.14829102
248	0xbef15240	-0.47133064
249	0x3e4ca851	0.19986083
250	0x3d8f8adf	0.070089094
251	0x3e1ef869	0.15524448
252	0x3d3f2a45	0.04667117
253	0xbdb1a271	-0.08673561
254	0xbd0451e2	-0.032304652
255	0x3e33bdb4	0.17552835

l2.bias f4 [300]
0	0x3e2d1bb7	0.16905104
1	0x3d0582a9	0.03259531
2	0x3e144862	0.14480737
3	0x3da2a0ec	0.0794085
4	0xbd2d9bca	-0.0423849
5	0xbd46a099	-0.048493
6	0xbd3957ff	-0.045249935
7	0x3e4294db	0.19002096
8	0x3e407dd2	0.18797997
9	0x3e183a49	0.14865984
10	0xbd405115	-0.046952326
11	0x3e2c34a3	0.16816954
12	0x3e40d282	0.18830302
13	0x39817d8a	0.0002469833
14	0xbd516ba0	-0.05112803
15	0x3e480d2e	0.19536278
16	0x3cacf1ef	0.021111457
17	0xbd311fcb	-0.04324321
18	0x3e6d0d9d	0.23149724
19	0x3de33155	0.11093394
20	0x3dcea33d	0.10089729
21	0x3e3a8923	0.18216376
22	0x3e565ef1	0.20934655
23	0x3c914a5e	0.017735656
24	0x3dea28c9	0.114335604
25	0x3e6d0366	0.23145828
26	0x3e163f72	0.1467264
27	0xbc726ae9	-0.014795997
28	0x3e89e7c6	0.26934642
29	0xbdbd2410	-0.09235394
30	0x3ccd42e3	0.025056308
31	0xbd05fccf	-0.0327118
32	0x3d00b68b	0.031424087
33	0xbc6dccd5	-0.014514168
34	0xbc2ddc3c	-0.01061159
35	0x3e2a6177	0.16638742
36	0x3e357a47	0.17722426
37	0x3e7ce0db	0.2469515
38	0xbc86b54c	-0.016443871
39	0x3e21d6e7	0.15804635
40	0xb9cb1105	-0.00038731858
41	0x3d0706f3	0.03296561
42	0xbd01008d	-0.031494666
43	0xbc1c19f3	-0.009527671
44	0xbc311ecf	-0.010810568
45	0x3e3aedc6	0.18254766
46	0xbd16a672	-0.03677983
47	0xbd5cfc34	-0.053951457
48	0xbb0af89d	-0.0021205314
49	0x3df5652c	0.11982188
50	0xbc167b20	-0.009184629
51	0xbcbadff7	-0.022811873
52	0xbd3237d8	-0.043510288
53	0xbbe5b14e	-0.0070096618
54	0x3e03c153	0.12866716
55	0x3e072555	0.13197835
56	0x3c431aa0	0.011908203
57	0x3b9cc21a	0.004783881
58	0x3c6bdfe7	0.014396644
59	0x3de5a761	0.112135656
60	0xbcaead79	-0.021322953
61	0x3e073c5d	0.1320662
62	0x3e758949	0.23978151
63	0x3def0a6c	0.1167191
64	0xbd56ec78	-0.052471608
65	0x3b63147a	0.0034649656
66	0xbce68a01	-0.028141977
67	0xbc4cf14f	-0.012508704
68	0xbccb394d	-0.024807597
69	0xbca825af	-0.020525781
70	0x3e762045	0.24035747
71	0xbd46f3ff	-0.048572537
72	0xbbf94294	-0.0076068137
73	0xbcaea465	-0.021318624
74	0x3d179624	0.03700842
75	0x3e36b214	0.17841369
76	0x3e1ab9ff	0.15110014
77	0x3c90f726	0.017695975
78	0x3e00ab79	0.12565412
79	0x3ba826f5	0.005131597
80	0x3e416dec	0.18889588
81	0x3da00585	0.07813553
82	0xbc8289f8	-0.01593493
83	0x3e334c84	0.17509657
84	0x3e25409a	0.16137925
85	0x3e34a332	0.17640379
86	0x3e1e4c59	0.15458812
87	0x3e2b0c01	0.16703798
88	0xbb1ffc9c	-0.0024412042
89	0x3db9288f	0.09040939
90	0xbc72ffc8	-0.014831491
91	0x3d0f07e6	0.034919642
92	0x3d040dc0	0.032239676
93	0x3b831ee4	0.004001485
94	0x3e33e5aa	0.17568079
95	0x3c5f1527	0.013615883
96	0x3deb9c15	0.1150438
97	0x3e1b003b	0.15136807
98	0xbcce5437	-0.025186641
99	0xbd2b8c09	-0.041881595
100	0x3e4fa619	0.20278205
101	0x3e487534	0.1957596
102	0x3de297a6	0.11064081
103	0x3c4d0172	0.012512552
104	0x3e013bac	0.1262042
105	0x3e253f3e	0.16137406
106	0x3df9a2a9	0.12189228
107	0xbcd4012a	-0.025879461
108	0xbd453195	-0.04814299
109	0x3e4199cf	0.1890633
110	0x3de7b22e	0.11313282
111	0x3de6736f	0.11252486
112	0x3dbdd4e1	0.09269119
113	0x3df5712b	0.11984476
114	0x3ddeff41	0.108885296
115	0x3e18ce72	0.14922503
116	0x3e1ff56c	0.15620965
117	0x3cf01d72	0.029310916
118	0xbcbb5ebb	-0.02287232
119	0x3ce047a9	0.02737792
120	0x3e302f08	0.17205441
121	0x3c203d9a	0.009780312
122	0x3df73016	0.120697185
123	0x3e4964cd	0.19667359
124	0x3e21bee9	0.15795483
125	0x3cadf30e	0.021234062
126	0x3aab0cc1	0.0013050066
127	0x3e03f53f	0.12886523
128	0x3ce97930	0.02850017
129	0xbd14f524	-0.036366597
130	0x3cac0c54	0.021001972
131	0x3dc9f41e	0.09861015
132	0x3c3252a5	0.010883962
133	0x3df017ff	0.11723327
134	0x3e64d39c	0.22346348
135	0xbc6db82f	-0.014509245
136	0x3e4a89ab	0.19779079
137	0x3e3e4bd7	0.18583618
138	0x3e50b296	0.20380625
139	0xbd67de66	-0.05660858
140	0x3e2bd8e8	0.16781962
141	0x3d170f3a	0.036879756
142	0x3e2b0751	0.1670201
143	0x3ca12b90	0.019674093
144	0x3bf05a44	0.0073349793
145	0xbd36ca89	-0.044626746
146	0x3cc10e32	0.02356634
147	0x3cb0702e	0.021537866
148	0x3e16aab5	0.14713557
149	0x3d4f8d58	0.050671905
150	0xbce70d68	-0.028204635
151	0x3df569b9	0.119830556
152	0x3e326547	0.17421447
153	0x3e1a6d02	0.15080646
154	0x3c37d71e	0.0112207215
155	0xbc202aa2	-0.009775789
156	0x3e4565c2	0.19277099
157	0xbc850ebe	-0.016242381
158	0x3d834b9e	0.06410907
159	0x3cca70ae	0.024711933
160	0x3c654782	0.0139941
161	0xbd58a502	-0.05289174
162	0x3d2de6b0	0.04245633
163	0xbd045cf7	-0.03231522
164	0x3e65ce61	0.22442009
165	0xbd2aa89c	-0.041664705
166	0x3e8b6903	0.27228555
167	0xbd66496b	-0.05622236
168	0xbc91d0cf	-0.017799763
169	0x3e6491e4	0.22321278
170	0x3e0ab38b	0.13545053
171	0x3d012699	0.03153095
172	0xbd60a374	-0.05484338
173	0x3e2f71ce	0.17133257
174	0xbd20fd0f	-0.039303835
175	0x3a872477	0.001031055
176	0x3d0d6543	0.0345204
177	0xbde92bb2	-0.11385287
178	0xbd9820d4	-0.074281365
179	0x3df9a630	0.12189901
180	0xbd2f8818	-0.0428544
181	0xbbb73f6e	-0.005592278
182	0x3d892fd2	0.06698574
183	0x3e4de700	0.20107651
184	0x3c8540df	0.016266285
185	0xbce9be3a	-0.02853309
186	0x3d1e77ef	0.038688596
187	0xbcd11af1	-0.025525542
188	0xbb91c569	-0.004448582
189	0xbd0693f2	-0.032855935
190	0x3e21f3ec	0.15815705
191	0x3d8c320f	0.068454854
192	0x3e2c689a	0.16836777
193	0x3e0afde2	0.13573411
194	0x3e17354d	0.14766426
195	0x3caf4715	0.0213962
196	0x3e4f04ff	0.2021675
197	0x3e158c07	0.14604197
198	0x3c0c370f	0.008558049
199	0x3e43f7f0	0.1913755
200	0x3e0cfe63	0.13768916
201	0x3d082bd0	0.033244908
202	0x3e3ad845	0.18246563
203	0x3dad975e	0.084761366
204	0x3cf74589	0.030184524
205	0x3e38fdc9	0.18065561
206	0x3dc297db	0.095016204
207	0x3e32a482	0.17445567
208	0xbd0b6527	-0.034032013
209	0x3ea72e3b	0.3265246
210	0xbcb45311	-0.022012265
211	0x3e3a01e9	0.18164791
212	0xbd0d4689	-0.034491096
213	0xbc7c2f5e	-0.015392153
214	0x3c8f0f0c	0.01746323
215	0xbd20959f	-0.03920519
216	0x3e8271a6	0.25477332
217	0xbca5473f	-0.020175574
218	0x3cdc49d3	0.02689067
219	0xbc78f7b6	-0.015195778
220	0x3db8e149	0.09027345
221	0xbce99c27	-0.028516842
222	0xbc5d3635	-0.0135016935
223	0x3e09ff6b	0.1347634
224	0xbcb688b0	-0.022281975
225	0x3e5c28bd	0.21499915
226	0xbd6d1c0f	-0.057888087
227	0x3d05d3c2	0.03267265
228	0xbc1f8b80	-0.009737849
229	0xbd7a3a67	-0.061090853
230	0x3e0cc580	0.13747215
231	0x3e227fb0	0.15869021
232	0x3d0007b8	0.03125736
233	0xbd2c5ab9	-0.042078707
234	0x3ce01eb3	0.027358389
235	0x3e454621	0.19265033
236	0x3e19179d	0.14950414
237	0x3c98648c	0.018602632
238	0x3bcf3b0c	0.0063241776
239	0x3cec5be5	0.028852412
240	0x3d18c83b	0.03730033
241	0x3ba73de9	0.005103816
242	0xbbcb6ece	-0.0062082773
243	0x3d1cd6e9	0.03829089
244	0x3e1080c7	0.14111625
245	0xbcac9614	-0.021067657
246	0xbc78083e	-0.015138684
247	0x3e40e676	0.18837914
248	0x3e17fc18	0.1484226
249	0x3e2e00a7	0.16992436
250	0xbd15905a	-0.036514618
251	0x3dd97f01	0.10619927
252	0x3bf6d9ad	0.007533273
253	0x3c493fdd	0.012283293
254	0x3d2354a5	0.039875645
255	0xbcd6f532	-0.026239965

l3.weight f4 [1, 300]
0	0xbe096950	-0.1341908
1	0x3d3a9cd4	0.04555972
2	0xbd678659	-0.05652461
3	0xbfba9d49	-1.457925
4	0xbb928693	-0.004471609
5	0x3cb48eac	0.022040688
6	0x3d2d644b	0.042331975
7	0xbd16baf4	-0.036799386
8	0xbc8b7868	-0.017025188
9	0xbe16e7a2	-0.14736798
10	0x3d0f11aa	0.034928955
11	0xbf1f3a62	-0.6219846
12	0xbdf1d28c	-0.11807737
13	0x3b341601	0.0027478936
14	0x3c48f2e7	0.012264944
15	0xbe24f4ad	-0.16108961
16	0x3cc13177	0.023583157
17	0x3d11c858	0.035591453
18	0x400d13af	2.2043264
19	0xbcaa4147	-0.02078308
20	0xbcb5fc4b	-0.02221503
21	0xbee7fa97	-0.45308372
22	0xbf2fee7b	-0.6872327
23	0x3d4a684a	0.049415864
24	0xbc325598	-0.010884665
25	0xbee776fd	-0.45207968
26	0xbf59a225	-0.8501304
27	0x3c887369	0.016656594
28	0xbe2bab7d	-0.16764636
29	0x3c6a1423	0.0142870275
30	0x3d18952d	0.03725164
31	0x3d2b8f7e	0.04188489
32	0xbb399c74	-0.0028322013
33	0x3c88db21	0.016706051
34	0x3d4e49cf	0.050363358
35	0xbd49d12d	-0.04927175
36	0xbd5f0feb	-0.05445854
37	0xbe9fe083	-0.31225976
38	0x3bb69475	0.0055718967
39	0xbea8e018	-0.3298347
40	0x3d3560bd	0.04428171
41	0x39c7e07b	0.0003812349
42	0x3d2ecd7d	0.042676438
43	0x3d2e4939	0.0425503
44	0x3cc82ab0	0.024434417
45	0xbd4a0794	-0.049323633
46	0x3d271334	0.040789798
47	0x3d3ff586	0.04686501
48	0x3cae51e8	0.02127929
49	0xbfae3107	-1.3608712
50	0x3d30ab6e	0.043132238
51	0x3d448dda	0.047986843
52	0xbb6de38e	-0.0036298963
53	0x3c832e97	0.016013427
54	0xbd218717	-0.039435472
55	0xbd64955b	-0.0558065
56	0x3c0787cb	0.008272122
57	0xbc3eaf39	-0.011638456
58	0x3d4134bd	0.047169436
59	0xbc082477	-0.008309475
60	0x3d451ce7	0.048123267
61	0xbefc366c	-0.4926027
62	0xbe6d090d	-0.23147984
63	0xbcaa0b64	-0.020757385
64	0xbed9ca47	-0.42537138
65	0x3c7f816d	0.015594822
66	0xbeac9a1d	-0.3371133
67	0x3d2daf72	0.042403646
68	0x3d30e642	0.04318834
69	0x3c74b342	0.0149353165
70	0xbe8f418c	-0.27979696
71	0x3d1ac4d8	0.03778538
72	0xbadd701c	-0.0016894373
73	0x3cafff31	0.02148399
74	0x3b7d585d	0.0038657405
75	0xbe52bb74	-0.2057932
76	0xbd058958	-0.032601684
77	0xbf343e1f	-0.7040729
78	0xbc5e8242	-0.013580861
79	0x3d0fea05	0.035135288
80	0xbe04588f	-0.12924407
81	0xbbb8d274	-0.0056403223
82	0x3c78eb1f	0.015192776
83	0xbca424e8	-0.02003713
84	0xbd49315b	-0.049119335
85	0xbdb08825	-0.086197175
86	0xbd8f7f34	-0.07006684
87	0xbca80cca	-0.02051391
88	0x3bc9a414	0.006153593
89	0xbf811b0f	-1.0086383
90	0xbb8f871e	-0.004380121
91	0x3be596e2	0.007006512
92	0x3c394218	0.011307262
93	0x3d083a95	0.033258993
94	0xbe0d14cb	-0.13777463
95	0xbb56dccc	-0.0032785414
96	0xbd2719cf	-0.040796097
97	0xbd01631b	-0.031588655
98	0xbd5e2c09	-0.054241214
99	0x3d0a8a88	0.03382352
100	0xbceaaf95	-0.028648177
101	0xbdf1925d	-0.11795495
102	0xbea2b502	-0.31778723
103	0x3d3722a4	0.04471077
104	0xbcbc49ba	-0.022984374
105	0xbefcd7a7	-0.4938328
106	0xbd14394c	-0.036187455
107	0x3d3aceeb	0.04560749
108	0x3c2fe0fd	0.010734794
109	0xbd23ad0f	-0.039959963
110	0xbcaecd4b	-0.021338126
111	0xbc5c94c9	-0.0134632075
112	0xbed5f1ce	-0.41786045
113	0xbc4e8cf6	-0.01260685
114	0xbef7cd8a	-0.48399
115	0xbd1546b8	-0.036444396
116	0xbe01f446	-0.12690839
117	0x3cfc8623	0.03082568
118	0x3d477517	0.04869565
119	0xbad74c28	-0.0016425895
120	0xbf6d0c1e	-0.92596614
121	0xbd0be5b3	-0.034154605
122	0xbd7715af	-0.060323413
123	0xbd0a9122	-0.033829816
124	0xbc5ebb1e	-0.013594417
125	0x3d1210fe	0.035660736
126	0x3cecdc5f	0.028913675
127	0xbd12decb	-0.035857003
128	0x3bb99ede	0.0056646904
129	0xbb42d18e	-0.0029726955
130	0x3cf1c173	0.02951119
131	0xbc83a187	-0.016068233
132	0x3d0e4e8a	0.03474287
133	0xbd2ad1d0	-0.041704
134	0xbda935e8	-0.08262235
135	0x3baad3d6	0.005213241
136	0xbdd74cc9	-0.105126925
137	0xbcbbb19d	-0.022911841
138	0xbd4713a9	-0.048602734
139	0x3b44f112	0.0030050916
140	0xbccee567	-0.025255872
141	0x3c046916	0.008081695
142	0xbd9c38cd	-0.076280214
143	0x3ccd5aa9	0.025067644
144	0x3ca70da0	0.02039224
145	0xbfd9f3d8	-1.702754
146	0x3ccf55bd	0.025309438
147	0x3d3075aa	0.043080963
148	0xbcc68a7d	-0.024235958
149	0xbf305ec6	-0.6889461
150	0x3c47b933	0.012190151
151	0xbd9ad0c2	-0.07559349
152	0xbccdfa42	-0.025143746
153	0xbdc32462	-0.09528424
154	0x3c82a57c	0.01594805
155	0x3d173de0	0.036924243
156	0xbd3eedd2	-0.046613522
157	0x3d310d29	0.04322544
158	0xbe81e92c	-0.2537321
159	0x3c6a7661	0.01431045
160	0xbb2d7ba0	-0.0026471391
161	0x3c767e27	0.0150447255
162	0xbd3c4275	-0.045961816
163	0x3c8c660a	0.0171385
164	0xbed03ae0	-0.40669918
165	0x3c89488c	0.016758226
166	0xbebfea63	-0.3748351
167	0x3d276820	0.040870786
168	0x3c76108f	0.015018596
169	0xbe6bf6f6	-0.23043427
170	0xbde5909a	-0.11209221
171	0x3cdf07f1	0.027225466
172	0x3cb3c8dd	0.021946365
173	0xbed4ffee	-0.4160151
174	0x3d2fe1d6	0.042939983
175	0x3c768779	0.015046948
176	0xbb2ae491	-0.0026076178
177	0xc01cc8dc	-2.4497595
178	0x3c8bb4f5	0.01705406
179	0xbcd0572e	-0.025432196
180	0x3c692f5b	0.014232482
181	0x3d33e112	0.043915816
182	0xbc9339c5	-0.017971883
183	0xbddc63aa	-0.10761197
184	0x3d07c382	0.033145435
185	0x3cd81035	0.026374916
186	0x3d3beb82	0.045878895
187	0x3cf61432	0.030038927
188	0x3cdd46f4	0.027011372
189	0x3d2bdf85	0.04196121
190	0xbd18801c	-0.03723155
191	0xbcbf7f7c	-0.023376219
192	0xbee6c468	-0.4507172
193	0xbcb22efe	-0.021750923
194	0xbd2bc6ee	-0.04193776
195	0x3b9ee184	0.004848661
196	0xbd96e461	-0.073677786
197	0xbc0ce1e0	-0.008598775
198	0x3c9bba10	0.01900962
199	0xbed3af48	-0.41344666
200	0xbd3ae0be	-0.045624487
201	0x3aaa9273	0.0013013616
202	0xbc90cdc1	-0.017676236
203	0xbc6bbc8d	-0.014388216
204	0x3d0ab578	0.03386447
205	0xbd71f0b2	-0.059067436
206	0xbc85aaf8	-0.016316876
207	0xbdaf62e2	-0.08563782
208	0x3d2f4dc0	0.042798758
209	0x401a62f7	2.4122903
210	0x3d168c97	0.03675517
211	0xbe06fa07	-0.13181315
212	0x3d3b603d	0.045746077
213	0x3d08035c	0.03320633
214	0x3c6ca571	0.014443741
215	0xbd4565dd	-0.048192848
216	0xbf1aa701	-0.6041108
217	0x3aae42eb	0.001329509
218	0x3d3d7ee1	0.04626358
219	0x3ca5d902	0.020245079
220	0xbfa83f95	-1.3144404
221	0x3d3e8a5f	0.04651868
222	0x3c20c333	0.009812164
223	0xbc8aaffe	-0.016929623
224	0x3cb87ccc	0.022520445
225	0xbf0fd7d7	-0.5618872
226	0xbb8d6510	-0.004315026
227	0x3d1f0e99	0.03883228
228	0x3c2a19c7	0.010382122
229	0xbf01ebc8	-0.507504
230	0xbc238d80	-0.009982467
231	0xbddf0971	-0.10890473
232	0x3d3e78d1	0.04650194
233	0x3b8cfd40	0.0043026507
234	0x39d17e81	0.0003995784
235	0xbd6a0f75	-0.057143647
236	0xbce88b78	-0.028386816
237	0x3cb18591	0.021670135
238	0x3ccd32e1	0.025048675
239	0x3d048ce1	0.032360915
240	0x3cfd1081	0.030891659
241	0x3c01e6ec	0.007928591
242	0x3cd4826b	0.025941094
243	0x3ca563ce	0.020189192
244	0xbd183fda	-0.03717027
245	0x3cf338d8	0.029690191
246	0x3d4dd1ec	0.050249025
247	0xbe2141c3	-0.15747742
248	0xbca775f9	-0.020441996
249	0xbd9fb290	-0.0779773
250	0x3c642a1c	0.013926055
251	0xbbdced51	-0.0067421575
252	0xbb9236c7	-0.0044620964
253	0xbba60ff4	-0.0050678197
254	0x3b5e56b4	0.003392619
255	0x3d414d37	0.04719278

l4.weight f4 [400, 4]
0	0x3e79ebda	0.24406376
1	0xbf16d7cd	-0.58923036
2	0x3e75b5e1	0.23995163
3	0x3ea868f8	0.32892585
4	0xbf3dbf30	-0.74119854
5	0xbfb4ca84	-1.4124303
6	0xbeb18ef5	-0.3467938
7	0xbd553535	-0.052052695
8	0xbe80b3a0	-0.25137043
9	0xbf0df2b1	-0.5544844
10	0xbceee5d6	-0.029162329
11	0xbdbc0356	-0.09180324
12	0xbe8a8ddc	-0.27061355
13	0xbe8552e0	-0.2603979
14	0xbe83a656	-0.25712842
15	0xbb355532	-0.0027669189
16	0x3ea4b391	0.32168248
17	0x3f04732b	0.5173823
18	0x3e2373cb	0.1596214
19	0xbe289192	-0.1646178
20	0x3f79dee0	0.97605705
21	0xbf4130a2	-0.7546483
22	0xbdd361f5	-0.10321418
23	0xbe53deff	-0.20690535
24	0xbeb2c636	-0.34916848
25	0xc0070d29	-2.1101782
26	0xbeb560b8	-0.35425353
27	0xbc7751bf	-0.015095173
28	0x3f98087f	1.1877593
29	0x3f02b5d0	0.51058674
30	0xbed4f9af	-0.41596743
31	0xbe356f09	-0.17718138
32	0xbf1473ca	-0.5798918
33	0xbf828964	-1.0198178
34	0xbe876867	-0.2644684
35	0xbd428c9f	-0.047497388
36	0x3f56cbf4	0.8390496
37	0x3ecd5882	0.4010659
38	0x3eb3c82c	0.35113657
39	0x3d702e8f	0.05863815
40	0x3d1e7d34	0.03869362
41	0xbf1bd3a7	-0.6086983
42	0x3e30706e	0.17230389
43	0x3dd4ce23	0.1039088
44	0x3f29123e	0.6604346
45	0xbfce91b8	-1.613822
46	0xbebdb523	-0.3705226
47	0xbd56fc15	-0.052486498
48	0xbf0f05d2	-0.55868256
49	0x3f37bb35	0.7177003
50	0x3e9503f9	0.29104593
51	0x3cd8a144	0.026444085
52	0xbdd2145d	-0.1025779
53	0xbf8ea4eb	-1.1144079
54	0xbe7bf8fb	-0.24606697
55	0xbd41f719	-0.04735479
56	0x3b26dcbc	0.0025461158
57	0x3f34b559	0.70589215
58	0x3e090f1a	0.13384667
59	0xbbff99c5	-0.007800313
60	0x3f252563	0.6451017
61	0x3dde87e5	0.108657636
62	0x3ea0a5a5	0.31376377
63	0x3ec51d44	0.3849889
64	0xbed90739	-0.42388323
65	0x3e716429	0.23573364
66	0xbdee82b6	-0.11646025
67	0xbc700789	-0.014650234
68	0x3d240417	0.040042963
69	0x3f431cee	0.7621602
70	0xbcc970b2	-0.02458987
71	0x3ccd7784	0.025081404
72	0xbedf66ff	-0.43633267
73	0xbf154e45	-0.58322555
74	0x3dcf0b42	0.10109569
75	0xbd064b58	-0.032786697
76	0xbf0c4cca	-0.5480467
77	0xbcf7ecfc	-0.03026437
78	0x3e3479e6	0.17624626
79	0x3dcf2579	0.10114569
80	0x3e43c79d	0.19119115
81	0x3eb35dd5	0.35032526
82	0x3d98c2da	0.0745904
83	0x3bf6234f	0.0075115333
84	0x3eca55d9	0.39518622
85	0x3f9a3e56	1.2050273
86	0x3e9f7eeb	0.31151518
87	0x3ca9236d	0.020646775
88	0x3f22000d	0.6328133
89	0xbf73259e	-0.94979274
90	0xbeaa2042	-0.33227736
91	0x3d0f7661	0.035025004
92	0x3e670854	0.2256177
93	0x3ffa46ed	1.9552895
94	0x3ee3a632	0.44462734
95	0x3d97a931	0.074053176
96	0xbe39e531	-0.18153836
97	0x3fee0227	1.8594407
98	0x3ece5a4f	0.40303275
99	0x3d5c3a88	0.053766757
100	0xbe9f8640	-0.31157112
101	0xbd8b56a4	-0.06803635
102	0xbde9abba	-0.11409707
103	0x3e0eeee6	0.1395832
104	0xbec25493	-0.3795515
105	0x3e5304f6	0.20607361
106	0x3e32d877	0.17465387
107	0xbd8e98ad	-0.06962714
108	0xbec4b097	-0.38415977
109	0xbfc2e279	-1.5225364
110	0xbe716e09	-0.23577131
111	0xbd6775a0	-0.05650866
112	0xbf0a87ee	-0.5411366
113	0x3fa85f3f	1.3154067
114	0x3e9adad2	0.30245072
115	0x3d17048c	0.03686957
116	0x3f83f517	1.030917
117	0x3f213165	0.62965995
118	0xbec6d803	-0.3883668
119	0xbe42eb4b	-0.1903507
120	0xbd70dbdc	-0.058803424
121	0xbeb0610b	-0.34449038
122	0xbed7fa2b	-0.4218305
123	0xbd7afa72	-0.061274
124	0x3fa99df0	1.3251324
125	0xbee0dae3	-0.43916997
126	0xbd8c7e21	-0.06859995
127	0xbbaa879b	-0.0052041537
128	0x3f672ad5	0.9029973
129	0x3f357661	0.70883757
130	0x3ea018b5	0.3126885
131	0x3d568c91	0.05238015
132	0x3dcdec45	0.100548305
133	0x3da046f4	0.07826033
134	0x3d47f4b6	0.04881736
135	0x3c43724b	0.011929105
136	0x3ebdcbe6	0.37069625
137	0xbeb33f2d	-0.35009137
138	0xbd0e1aff	-0.034693714
139	0x3f17e385	0.5933154
140	0xbe229d09	-0.15880217
141	0xbd902e3a	-0.07040067
142	0x3e6b1c4c	0.22960013
143	0xbebddc82	-0.37082297
144	0xbe9c3625	-0.3051006
145	0xbd271cfc	-0.040799126
146	0x3d5b27ef	0.05350488
147	0x3d9d0cd6	0.07668464
148	0x3e91d35e	0.28481573
149	0xbf493a37	-0.78604454
150	0x3eb4bb73	0.35299262
151	0xbd853bb8	-0.06505531
152	0x3f45ea87	0.77310985
153	0xbf2ba1a3	-0.67043513
154	0x3e600d1b	0.2188
155	0x3d35667e	0.044287197
156	0x3fc6cc96	1.5531185
157	0x3f2eaed8	0.6823554
158	0x3e19c049	0.15014757
159	0xbc1e8035	-0.009674122
160	0xbeb5bbb9	-0.35494784
161	0x3e6d50d0	0.23175359
162	0x3e285b76	0.1644114
163	0xbd65c4fe	-0.05609607
164	0xbeaf5d37	-0.34250805
165	0x3f795306	0.9739231
166	0x3e75cfe0	0.2400508
167	0x3d2a2601	0.04154015
168	0xbdc26573	-0.09492006
169	0x3e127962	0.14304116
170	0x3dc84a8d	0.097798444
171	0xbe7d6ea3	-0.24749236
172	0xbd047aab	-0.032343548
173	0x3ee04eac	0.43810022
174	0xbe1958eb	-0.14975326
175	0xbd5645a1	-0.052312497
176	0x3f790ed0	0.9728823
177	0xbeb0a83a	-0.34503347
178	0xbe8b463c	-0.27202022
179	0xbd902512	-0.070383206
180	0xbf21ca1f	-0.6319904
181	0xbf239462	-0.6389829
182	0x3dc2a042	0.09503223
183	0xbcfee8cf	-0.031116871
184	0xbef6c77c	-0.4819907
185	0x3c17aa43	0.009256902
186	0xbc4334a6	-0.011914408
187	0x3e427432	0.18989637
188	0x3f8f582d	1.1198784
189	0x3f449ee3	0.7680494
190	0x3ec1661d	0.3777322
191	0x3d08aace	0.033366017
192	0x3f2c04b2	0.67194664
193	0x3f4b27b3	0.7935745
194	0xbe4a7360	-0.19770575
195	0xbd0d42fb	-0.034487706
196	0xbebf26f8	-0.37334418
197	0xbf3d0d48	-0.7384839
198	0xbe33bed9	-0.17553271
199	0xbcdf8dfb	-0.027289381
200	0x3ed98923	0.4248744
201	0x3ebb5fe9	0.3659661
202	0xbeb07639	-0.34465197
203	0x3e3eedaf	0.18645357
204	0x3ee0d3c6	0.4391157
205	0xbf8b122e	-1.0864923
206	0xbe7e9adf	-0.24863766
207	0xbd101656	-0.03517755
208	0xbeacc289	-0.3374217
209	0xbe0c1997	-0.13681637
210	0xbe84e4dc	-0.25955856
211	0x3ef03262	0.4691344
212	0x3f652381	0.895073
213	0xbf934dca	-1.1508114
214	0x3dae097c	0.08497903
215	0x3d442c74	0.047893956
216	0x3f44154c	0.76594996
217	0xbebc24c8	-0.36746812
218	0xbed0eb5b	-0.40804562
219	0xbd849cdc	-0.06475231
220	0x3fa1ce96	1.264117
221	0xbd96bc64	-0.073601514
222	0xbdf13393	-0.11777415
223	0xbdd7b7a4	-0.105330735
224	0x3f2809ba	0.6563984
225	0x3fb35163	1.4009212
226	0x3eaefe9e	0.34178632
227	0x3d53aa67	0.05167618
228	0xbf055b6c	-0.52092624
229	0xbe2e9dad	-0.17052336
230	0xbe7c8ecd	-0.24663849
231	0xbea192df	-0.31557366
232	0xbf29ea6b	-0.6637332
233	0xbe41c94e	-0.18924448
234	0xbe49668b	-0.19668023
235	0xbd13fba6	-0.036128663
236	0xbe7b2ef7	-0.24529634
237	0xbfc8e611	-1.5695211
238	0xbea2aae4	-0.31771004
239	0xbcd808a4	-0.026371308
240	0xbe909274	-0.28236735
241	0xbf601f0c	-0.87547374
242	0x3de0a0fb	0.109682046
243	0xbce3ae2a	-0.027793009
244	0xbeb44ae8	-0.352134
245	0xbe805ee7	-0.25072405
246	0x3e0e30c2	0.13885787
247	0xbdadff66	-0.08495979
248	0xbee951e9	-0.45570305
249	0x3e93d8d1	0.28876355
250	0xbe811a5c	-0.25215423
251	0xbebba63e	-0.3665027
252	0xbf273fbe	-0.6533164
253	0xbf5aac47	-0.85419124
254	0xbed4b9a7	-0.41547891
255	0xbd5e10a4	-0.05421509

l4.bias f4 [400]
0	0xbf1243bf	-0.5713462
1	0x3d258c2c	0.04041688
2	0x3f00a63d	0.5025366
3	0x3e8f52b4	0.27992785
4	0x3e45513c	0.1926927
5	0x3ee0963d	0.43864623
6	0xbecfeee7	-0.40611956
7	0xbf96412a	-1.1738636
8	0x3dbddd43	0.09270718
9	0xbf7f19e2	-0.9964887
10	0xbd03de5e	-0.032194488
11	0xbbd11d15	-0.0063816407
12	0x3f1f2f9d	0.6218203
13	0x3ea27aae	0.31734222
14	0xbd70f23e	-0.05882477
15	0xbee19cbb	-0.44064888
16	0x3ebe7f9d	0.37206736
17	0x3ebc1d20	0.3674097
18	0x3e899886	0.2687418
19	0xbec2c738	-0.38042617
20	0x3ee0e8e1	0.43927673
21	0xbf34c7d1	-0.70617396
22	0xbf5b84d7	-0.8574957
23	0xbf27bc8b	-0.6552207
24	0xbe83c2b0	-0.25734472
25	0xbf01fe08	-0.50778246
26	0x3f037ec7	0.5136532
27	0xbe057784	-0.13033873
28	0x3e328050	0.1743176
29	0xbecda3e1	-0.40164092
30	0xbeed4bf7	-0.4634702
31	0x3f0b0f77	0.5432047
32	0xbf181a2f	-0.59414953
33	0xbd8aa3dc	-0.06769535
34	0xbe22c4e1	-0.15895416
35	0x3f03ca9f	0.5148105
36	0x3e5395bd	0.2066259
37	0xbe7c98d7	-0.24667679
38	0xbf20df3a	-0.62840617
39	0xbea5552d	-0.32291546
40	0x3e87c619	0.26518324
41	0xbeb80864	-0.35943902
42	0x3e3325d4	0.17494899
43	0x3e763745	0.24044521
44	0xbecbcda0	-0.39805317
45	0x3e8529f0	0.26008558
46	0x3e20227e	0.15638158
47	0xbf3e20ec	-0.74268985
48	0x3e541ee7	0.20714913
49	0x3c90fa0e	0.01769736
50	0xbf8bef2c	-1.0932364
51	0xbb84f0ee	-0.0040570414
52	0x3e6626f6	0.224758
53	0x3dd1d577	0.10245793
54	0xbfa77784	-1.3083348
55	0x3dd965bd	0.10615108
56	0xbe775c9f	-0.24156426
57	0x3f083a80	0.53214264
58	0x3f3eb4a6	0.744944
59	0xbed0c8d2	-0.40778214
60	0xbecbd5dd	-0.39811602
61	0x3f214f0e	0.6301125
62	0x3de188eb	0.11012443
63	0xbef66c12	-0.48129326
64	0xbe3d0b7f	-0.18461417
65	0xbe10ac14	-0.14128143
66	0xbf0ae34d	-0.54253083
67	0x3eb7d8c5	0.3590757
68	0x3f048bcf	0.5177583
69	0xbef3ff5d	-0.47655764
70	0xbe073fee	-0.13207981
71	0x3ea5bb81	0.32369617
72	0xbf179fd8	-0.5922828
73	0x3eb2c24a	0.34913856
74	0x3ed8be30	0.42332602
75	0xbded1673	-0.115765475
76	0x3ed3858d	0.4131283
77	0xbdbb5bb6	-0.09148352
78	0xbe975dc5	-0.29563728
79	0x3f2bf076	0.6716379
80	0xbee1a813	-0.44073543
81	0xbe363341	-0.1779299
82	0xbe71f172	-0.2362726
83	0xbee6e054	-0.45093024
84	0xbd8f38e1	-0.06993271
85	0x3cf57c95	0.029966632
86	0x3f262d02	0.64912426
87	0xbf900952	-1.1252844
88	0x3f0243f6	0.5088495
89	0xbe67310c	-0.22577304
90	0x3efee510	0.49784136
91	0xbf0ee0f4	-0.55812
92	0xbeab563e	-0.33464235
93	0x3e350ed1	0.17681433
94	0x3e4ba479	0.1988696
95	0x3dea578c	0.114424795
96	0xbed5764a	-0.4169181
97	0x3cec938b	0.028878948
98	0xbe8f60f8	-0.2800367
99	0xbefbafe2	-0.49157625
100	0xbdff2646	-0.12458472
101	0xbe9e7681	-0.30949786
102	0xbdf34d3c	-0.11879966
103	0xbdfea476	-0.12433712
104	0xbef2f05c	-0.47449005
105	0xbe606a5a	-0.2191557
106	0xbf58206d	-0.8442448
107	0x3f17417a	0.59084284
108	0x3e36f02a	0.17865053
109	0xbf8b3f1e	-1.0878637
110	0x3e817c94	0.25290358
111	0x3edf5c4c	0.43625104
112	0xbebe7a5e	-0.37202734
113	0xbe571be0	-0.21006727
114	0xbd1d35ee	-0.03838151
115	0xbea217cb	-0.31658778
116	0x3eafb07d	0.34314337
117	0xbf8409ba	-1.0315468
118	0x3e7ad5f4	0.24495679
119	0xbe01f2d1	-0.12690283
120	0xbee9e59c	-0.4568299
121	0x3e94a032	0.2902847
122	0x3ef36d47	0.4754431
123	0xbebe05d1	-0.37113813
124	0x3f0270f3	0.50953597
125	0x3e8216b2	0.2540794
126	0x3e94d502	0.29068762
127	0xbf1f3d60	-0.62203026
128	0xbe3022b2	-0.17200735
129	0x3de9de8b	0.114194
130	0xbc91e40e	-0.01780894
131	0xbf1e9c09	-0.6195684
132	0x3e80835a	0.25100213
133	0x3f321edb	0.6957833
134	0xbe54a5d6	-0.20766386
135	0xbeed2972	-0.46320683
136	0x3eea040f	0.4570622
137	0x3f0f5c45	0.5600017
138	0x3eb6ef70	0.3572955
139	0x3e724e20	0.23662615
140	0xbe6ef2b4	-0.23334771
141	0x3e122b87	0.14274417
142	0xbf3da805	-0.740845
143	0xbdf734ba	-0.12070604
144	0xbe81b3ef	-0.2533259
145	0xbec1f41b	-0.3788155
146	0xbf1f6b32	-0.6227294
147	0xbfa43b53	-1.2830604
148	0x3e52c2dd	0.20582147
149	0xbf707dfa	-0.93942225
150	0xbe63b25a	-0.22236004
151	0xbf24b4cd	-0.6433838
152	0xbea9e040	-0.33178902
153	0x3e22bd6f	0.15892576
154	0x3ec4701f	0.38366792
155	0x3e0157f3	0.12631206
156	0x3ecf8678	0.4053228
157	0x3e54baa8	0.20774329
158	0x3e066ba3	0.13126998
159	0x3e81228b	0.25221667
160	0x3e031509	0.12800993
161	0xbeb93b54	-0.36178076
162	0x3e136b37	0.14396368
163	0xbeb20e59	-0.3477657
164	0x3daece60	0.08535457
165	0x3eeabbac	0.45846307
166	0x3e5288cc	0.20559996
167	0xbe5aea8a	-0.21378532
168	0x3c5a9fbd	0.013343749
169	0xbe26430d	-0.16236515
170	0xbe104e22	-0.14092305
171	0x3ee1fe1c	0.44139183
172	0x3ebde299	0.37086943
173	0x3cbb31ef	0.022850959
174	0x3ec7234e	0.38894123
175	0x3e900342	0.28127486
176	0x3e81c349	0.25344303
177	0xbed0f918	-0.40815043
178	0x3e30e01c	0.17272991
179	0xbf233c84	-0.63764215
180	0xbf35ce5f	-0.7101802
181	0xbf67322b	-0.90310925
182	0x3f1bfab3	0.6092941
183	0xbe08a9c5	-0.13346012
184	0x3f01c4fa	0.5069119
185	0xbca28201	-0.019837381
186	0x3f22e6d7	0.63633484
187	0x3f25e7e5	0.6480697
188	0x3e9d1e9f	0.30687425
189	0x3f1a8fd1	0.60375696
190	0xbf881851	-1.0632421
191	0xbed90b4e	-0.42391437
192	0xbe6d62dd	-0.23182245
193	0x3d6d3d45	0.05791976
194	0x3e7e9937	0.24863134
195	0x3f266168	0.6499238
196	0xbea3ed3e	-0.3201694
197	0xbf2a2803	-0.66467303
198	0x3eff1729	0.49822357
199	0x3ee5d98f	0.44892547
200	0xbf0ccf5c	-0.55003905
201	0x3f36655b	0.71248406
202	0x3da1080a	0.078628615
203	0xbf731d67	-0.9496674
204	0xbeafe451	-0.3435388
205	0x3dccaad3	0.0999352
206	0x3e9eeff1	0.31042436
207	0x3d86232d	0.06549678
208	0xbf4471a4	-0.767359
209	0xbf77ecc4	-0.9684565
210	0xbee5d8a3	-0.44891843
211	0x3d062b2b	0.032756012
212	0xbe9bd0b0	-0.30432653
213	0xbe84af4c	-0.2591499
214	0x3dcb1aef	0.099172466
215	0xbe47dabf	-0.19517039
216	0xbe7ae69b	-0.24502032
217	0xbe76bf29	-0.2409636
218	0x3f2d2673	0.67636794
219	0xbf3a0e14	-0.7267773
220	0xbe60a5d9	-0.21938266
221	0xbc0b995b	-0.0085204495
222	0xbe3808fb	-0.17972176
223	0xbf283f8e	-0.65721977
224	0x3ef4584b	0.47723612
225	0x3ef43ce5	0.4770271
226	0x3e3ee28f	0.18641113
227	0x3e9b252d	0.303018
228	0xbf8449c6	-1.0335014
229	0xbd33d03d	-0.043899763
230	0xbf2080ab	-0.6269633
231	0x3ef176b9	0.4716089
232	0x3ebbfc0c	0.36715734
233	0xbf6c5188	-0.92311907
234	0x3e5444d5	0.20729382
235	0xbf7afaf3	-0.9803917
236	0xbf1f0d72	-0.6212989
237	0x3e6aa7ef	0.22915624
238	0xbe8d31d7	-0.27577087
239	0xbec24754	-0.37945044
240	0xbf57a026	-0.8422874
241	0xbd3d2881	-0.046181206
242	0x3ed92485	0.42410675
243	0xbedb0417	-0.42776558
244	0x3d948a98	0.07252997
245	0xbf3cca23	-0.73745936
246	0xbf00021c	-0.5000322
247	0xbf492e1a	-0.7858597
248	0x3ecc1afb	0.39864334
249	0x3eb92c8c	0.361668
250	0x3c8b4fab	0.017005762
251	0x3f113667	0.56723636
252	0xbe8cf3d0	-0.27529764
253	0x3ed0570e	0.40691417
254	0x3c42b86c	0.01188479
255	0xbf09d5bb	-0.5384175
